weights_only.pth (torch_old, 8770 bytes, 14 tensors)

hidden1.weight f4 [20, 43]
00000000: b1e5 293d cff0 f33d 1544 f8bc 3687 d23d
00000010: 4b37 2abd dd9b 613e 702e 303e 9dcb 003f
00000020: 7e7a 49be ea43 873e 81b5 053d 8be5 f7bd
00000030: 2bda 68be 5332 5c3e b116 97be 2b0a fabd
00000040: 782c 0b3e 3ec3 ccbd 1d37 893e d1f5 26bc
00000050: 2a75 933d 025d b33e 2a92 aa3d 0d7a 283e
00000060: 549f 55be 4096 d9bc f909 55bd 8ecd 17be
00000070: bb5a 81be 56c2 ef3e afb4 56bd 3671 50bd
00000080: 9e16 ef3d c274 e6bd 2d4f 25be f765 04be
00000090: 2e20 03be 1203 2b3e 4308 193e 6f52 083e
000000a0: 1533 5f3d ff19 5fbe 131a 063d 887d 753e
000000b0: d9f9 b63e 94c7 103d f79a 983d 4465 8dbe
000000c0: 82b2 91be edfc a53e 1e56 65be 4ffc fbbc
000000d0: 2fc7 b4be 88c2 8fbe 00b1 4fbd 7505 de3e
000000e0: 120d 52be f9eb 433e b1bc 803e 81de 603c
000000f0: b796 febc 99b9 c73d 7cd2 d53d 0f0b d93d
00000100: 6564 13bc 3082 bbbd 8b08 653d ef56 85be
00000110: c51b f13d 352f 69be d824 a3bc 8d1b 3b3e
00000120: 5dae d13d ca51 bbbe f36d 083a d6b2 d33d
00000130: f4ca 283d 380c 0bbe 8589 27be b2c6 983d
00000140: 54a2 083e a1bc 2f3d d654 243e cf8e 95be
00000150: b0e4 3bbe 5c98 f53d d86d 923c 4539 1dbe
00000160: 3c3c 1e3b cb07 7b3d aa0c 313e 4227 b9be
00000170: 829c 03bf dc11 19bd 12f0 49be b16e 8bbe
00000180: ba24 e93b 50b5 763d 8229 93bd 106c 9cbc
00000190: 146f 553d d74c 0ebe 4ed9 04bd 953b 263d
000001a0: a5ee 61bc 6b1e 9abd bb01 0f3d c792 12bd
000001b0: c12f ac3d 53ac 033e 8d22 b13e a49d d6be
000001c0: d1a7 21be 515c 34be 5f7d 05be 1f0b 82be
000001d0: 3abc 39be 571d 873e 1226 d93d d3e9 03bf
000001e0: 0b30 ad3d 5b3d 0e3b 5356 653d 1c48 e43c
000001f0: 0b00 9c3d 166f 773e 8b47 333e f919 22be
00000200: 23e6 133d 9f86 c6bf 0fc6 653c d202 56bc
00000210: 2d64 c6bc 5aa6 22bd 9187 14bd 2bc5 8bbd
00000220: 4972 fdba af68 73bd ac56 9a3d 7755 e63d
00000230: 1e22 3bbd f28f 573d d8ff 823d 0b81 51bd
00000240: ca95 1e3c b5bf 053c 6afc 23bd eb99 63be
00000250: b790 63be 6469 f73c 6133 103c 926d e53d
00000260: c20d 913d a394 9dbc f323 013d be9a 133c
00000270: b747 2dbe 8d1a afbd 9018 e4bd 0bea cabd
00000280: 1c37 883d 07cc 443d 6936 503d ea4b dbbb
00000290: e270 49bc ebf1 e4bc bc82 2abd 8d2f 2c3d
000002a0: b685 90bd a74d c7bd a685 1f3b 2c64 b0bc
000002b0: d45b 523d aa61 ee3e 7051 253d 0086 50bd
000002c0: e811 783c f72c 5b3b 400c 013e 8787 623d
000002d0: 0ae9 703d 4817 943d e186 863d 803d fb3c
000002e0: 297d 3abe 4a73 cabe 22f0 a0bc 1ee0 303d
000002f0: 1cbc cb3b 244f e83c e7a2 593e f816 a03e
00000300: 27b8 01ba 5be6 a3bd 7f58 68bd 7eaa debb
00000310: 6c32 1ebf 1215 723e dfc0 843e 9261 aabe
00000320: fa7b ef3c 98b3 3c3d 70cf 85be 1819 fc3c
00000330: 8dc0 aabb c458 40be a604 28bd a283 26bd
00000340: ffd4 12bd e2b0 c6bc 7ea5 09bd 90ff 1bbe
00000350: e6a8 0cbd 641c 93bc 0d17 07be daf1 0e3e
00000360: 39ca 8fbe 8ec4 cd3b 8211 9c3e b336 e5be
00000370: 8aa5 923e 8c95 8e3e e048 99be 7dce ca3d
00000380: f4f3 bdbc d56c a33d 10ca 83be aceb 6bbe
00000390: 5764 f1bd 650c 84be eecc 95bd 8ea1 923c
000003a0: 6cc3 5dbc 208f f93d 9858 c63d ff61 abbe
000003b0: 7e47 963e df1f 8ebc 7f56 013e 9098 4fbe
000003c0: 83d5 a8bd 2fa4 a53d b645 0dbe 3c02 833e
000003d0: 82b6 1c3e bca6 c4be 8e99 06bd 1bc9 da3d
000003e0: cb29 a9bb b596 483d 9bf6 05be ee0d 403d
000003f0: 01c3 01bb 5018 28bd 9347 70bd fcde 3a3d
0.041478816 0.11911165 -0.030305902 0.10279696 -0.041556638 0.22032113 0.17205215 0.5031069
-0.19675633 0.26419002 0.0326438 -0.12104329 -0.22739474 0.21503572 -0.295095 -0.12208971
0.13591182 -0.09998177 0.2679986 -0.010190443 0.07200082 0.35031897 0.0832866 0.16452809
-0.2086156 -0.026560903 -0.052011464 -0.14824507 -0.25264534 0.46827954 -0.052418407 -0.050889216
0.11674236 -0.112527385 -0.16143484 -0.12929522 -0.12805244 0.1670039 0.14944558 0.13312696
0.054492075 -0.2178726 0.03273971 0.23973668 0.35737494 0.035346583 0.07451432 -0.27616322
-0.28456503 0.3241953 -0.22396132 -0.030759959 -0.35308215 -0.28078103 -0.05070591 0.43363538
-0.20512798 0.19132985 0.2514396 0.013724924 -0.031077726 0.09752197 0.10440537 0.105978124
-0.008996104 -0.09155691 0.05591635 -0.26042888 0.11772875 -0.22771914 -0.01991503 0.18272229
0.10238335 -0.36585838 0.0005204372 0.103368446 0.041209176 -0.1357888 -0.16361053 0.07459773
0.13343173 0.0429045 0.16047987 -0.29210517 -0.18348956 0.11991951 0.017874643 -0.15353878
0.002414479 0.06128673 0.17289987 -0.36162764 -0.51410687 -0.037370548 -0.19720486 -0.27232888
0.007114974 0.060231507 -0.07185651 -0.019094497 0.052107885 -0.138965 -0.0324338 0.040584166
-0.013789807 -0.07525333 0.03491376 -0.03578451 0.08407546 0.12858705 0.34596673 -0.41917145
-0.15786673 -0.17613341 -0.13036107 -0.2539911 -0.18138209 0.26389572 0.106029645 -0.5152866
0.08456429 0.0021704051 0.05599053 0.027866416 0.07617196 0.2416347 0.1750776 -0.1583022
0.036108147 -1.5509833 0.014024272 -0.013062196 -0.02421769 -0.039709426 -0.0362621 -0.06824716
-0.0019336428 -0.059426006 0.075360626 0.1124677 -0.045686834 0.05262751 0.063964546 -0.051148456
0.009679267 0.008163382 -0.040035643 -0.22226684 -0.22223173 0.030201621 0.008801312 0.112025395
0.07082702 -0.019235915 0.031528424 0.009009061 -0.16921888 -0.08549986 -0.111374974 -0.099079214
0.06651136 0.04804614 0.05083314 -0.0066923993 -0.01229498 -0.027947387 -0.041628584 0.042037535
-0.07056753 -0.09731608 0.0024341135 -0.02153214 0.051357105 0.46558887 0.040360868 -0.050909042
0.015140988 0.003344355 0.12602329 0.05530503 0.058815993 0.07231003 0.06568695 0.030668974
-0.18211807 -0.39541084 -0.019645754 0.043182485 0.0062174927 0.02835805 0.21253549 0.31267524
-0.00049484003 -0.08002921 -0.05672502 -0.0067952266 -0.6179569 0.2364085 0.259284 -0.33277565
0.029233921 0.04606971 -0.26134825 0.030773684 -0.005210942 -0.18783861 -0.041020058 -0.04065288
-0.03584766 -0.024254266 -0.03360509 -0.15234208 -0.03434076 -0.017957874 -0.13192387 0.13959447
-0.2808397 0.0062795347 0.30482107 -0.44768295 0.2864192 0.2784847 -0.29938412 0.09902666
-0.023187615 0.079797424 -0.257401 -0.2303912 -0.117867164 -0.25790706 -0.07314478 0.0178993
-0.013535362 0.12185502 0.09684867 -0.33473203 0.2935142 -0.017349182 0.12630652 -0.20273042
-0.08243849 0.08087956 -0.13796124 0.25587642 0.15303996 -0.38408458 -0.032861285 0.10682889
-0.005162453 0.04897185 -0.13082354 0.046888284 -0.001980007 -0.04103881 -0.05866201 0.04562281

hidden1.bias f4 [20]
00000000: 8138 93be ea8c 153d fb3f 5dbe 9c37 8ebf
00000010: 7cbb 34bf 6b8a de3d 7ff2 dabe 787c 31be
00000020: 37ca 3a3b 2844 f7bd 5377 bbbd 9a47 1cbe
00000030: c594 2dbf b12e 653e e27d bcbe 260e 013c
00000040: 09a0 39bd 325a a7be 500f 003d 4703 b4be
-0.28754047 0.03651134 -0.21606438 -1.1110721 -0.7059858 0.10866245 -0.42763135 -0.17332637
0.0028501877 -0.12073547 -0.09153619 -0.15261689 -0.6780513 0.22381093 -0.3681479 0.007876908
-0.045318637 -0.32686 0.031264603 -0.3515875

bnhidden1.weight f4 [20]
00000000: 5e83 7a3f ad45 623f 6718 473f 17a6 a83f
00000010: 94f6 7f3f d9fe 5e3f e489 633f 754a 623f
00000020: 966b 683f 4a4c 4d3f 0e6c 483f 9992 743f
00000030: 795a 843f b0a9 373f 1ef3 493f 0c39 5d3f
00000040: c39d 793f 030d 613f cf6e 753f 34bf a43f
0.978567 0.88387567 0.7777161 1.3175687 0.99985623 0.87107617 0.8888228 0.8839486
0.90789163 0.8019453 0.7828988 0.9553619 1.034011 0.717433 0.7888659 0.8641517
0.9750635 0.8791048 0.95872205 1.287085

bnhidden1.bias f4 [20]
00000000: 3c56 b13b 01be 8ebe b233 80ba 0318 22bf
00000010: 38eb 5bbd 948b b6be 1ded 34bd c1f0 28be
00000020: 93d5 bbbe 1c3a c1bc 5493 4ebe 5f50 f53e
00000030: 6da3 bfbc fe8e a23e 2b6e 863e 92c7 dabe
00000040: 4a2e 9ebe b570 043e fc15 26bf eae8 58be
0.0054118913 -0.27879336 -0.0009781031 -0.6331789 -0.05369112 -0.35653365 -0.04417144 -0.1649809
-0.36686382 -0.023587279 -0.20173389 0.4791288 -0.023393357 0.3174972 0.26255926 -0.42730385
-0.3089469 0.1293362 -0.64877295 -0.211826

bnhidden1.running_mean f4 [20]
00000000: 56ed 483c 5105 8b3e a06d e7be 31ed 90bf
00000010: 4d43 c5be 4865 6f3e 1a23 63be 133f 903d
00000020: 83ff 603e 149a dbbe 5be6 b7bd 953c 39be
00000030: 6eee 1ebf a5de 40be 792d 0ebf b0bc 193e
00000040: 47d9 473e 3bdd 02bf 0284 85bd 2959 90be
0.012263617 0.27152494 -0.45200825 -1.1322385 -0.3852791 0.2337848 -0.22181359 0.070432805
0.2197247 -0.4289099 -0.08979484 -0.18089516 -0.62082565 -0.18834932 -0.55538136 0.15013385
0.19516478 -0.5111882 -0.06519319 -0.28193024

bnhidden1.running_var f4 [20]
00000000: ed42 0040 d698 0540 d5f0 0340 f163 1340
00000010: b261 2140 4d9f fc3f 761c c23f ad61 e03f
00000020: 7fde 1c40 5964 2840 479a 983f e5de fd3f
00000030: 0677 4240 fa88 0040 bde1 0140 51e5 0840
00000040: 3c5d db3f 936b b03f d259 923f 6178 dc3f
2.0040848 2.0874534 2.0615742 2.302975 2.5215878 1.9736115 1.5164936 1.7529808
2.45108 2.6311247 1.1922082 1.9833647 3.0385146 2.0083604 2.029403 2.1389964
1.7137828 1.3782829 1.1433661 1.7224237

hidden2.weight f4 [20, 20]
00000000: 0e8a 55be 1141 a4bc 3fd1 d9bc 15a1 db3e
00000010: e06a 8139 deb1 c2be 803f 4c3e 6017 94bd
00000020: 325d d8bd da80 d5bd c601 4b3d c541 05be
00000030: 911c a63e 622c 32be cdb6 78be af50 3d3e
00000040: f744 7a3d 3f5d b1be 1c30 c9be 233a 31bd
00000050: 2983 bebe 4b57 4bbe e07f bc3d 0c9e a7be
00000060: e514 cfbd 30b9 e1bd 9a23 ca3c 0316 013e
00000070: 7cef 03be ef95 283e fb31 6dbe 77a0 5b3d
00000080: 095c b83b 58f9 17be b1ca 8e3e 861a 953e
00000090: 6633 193c c848 843e 1cab cb3d 4cc5 fbbe
000000a0: cbfe 853e 4ece 8cbd 5e6d bdbe c29d 72bd
000000b0: da25 503e 1f0f e7bd aaa1 d4be cec3 9c3e
000000c0: c70f f33c 4ca6 e8be c397 183e 497d d03e
000000d0: e12d b1be f515 99bd 9611 85be 5b47 c1be
000000e0: c514 1bbe 3512 633d dfe3 15be d669 6e3e
000000f0: 5211 a53e c76d 273e 4fa7 2fbd ee24 46be
00000100: 7b5a 893d 91fa 8f3d 3df9 3c3e 2203 a5be
00000110: de3f 093e 2453 dd3d 0f83 72be e358 843b
00000120: da9a 2dbe 002d 26be 8ea2 64bc 2fe6 be3e
00000130: 7465 c13e 99bc 17be b821 90be d9b3 763d
00000140: c543 afbe 1640 2bba d735 913d 9550 303d
00000150: e18b 5ebe 471e b5bd 3ed2 aabe 4171 4e3b
00000160: 9021 bb3e 3e8a df3d d854 3abe a9cf 50be
00000170: e9a4 a43e e9cb 3e3e fd6b 07bf 3501 853e
00000180: 4ee2 903e 4209 54be 17f6 8abe b842 d33d
00000190: e415 cb3d fb51 9f3d 4291 09bf fdd5 28be
000001a0: 58a3 9cbe a36e b63d 3bdc 02be 290b c63e
000001b0: 09c0 663e 81c7 51bd 9485 213c d891 a63d
000001c0: 561c 93be 5908 3bbe 563c 26be b29c 77bd
000001d0: 62a6 9f3e fcaa c63c d31a 5fbe be7c b7be
000001e0: 9b04 9abb be1f ff3e cc2f 8ebe 95ba 0dbe
000001f0: a5b6 023f 62bd 943e 5ad4 54bd ac7f bebd
00000200: 2e32 233e 766b 19be ef20 943e ee8c 46be
00000210: 6a8f d2bc 3c0a 9c3c 831e 21be 8255 3e3e
00000220: fab0 e3bd afa1 eb3d d599 23be 0b8f f4bd
00000230: 694f 373e 2442 ae3e 19ca 683e 3945 c2bd
00000240: dd7e f4bd 2cd8 803d 9c25 aa3e 6adf 7dbe
00000250: 6d0f 52be c8a7 49be 26ae c5be 17c8 ccbe
00000260: e0c6 623e 51e9 2fbe 81d4 eebc 6a5d 18be
00000270: 59b0 373d f9b3 b2be 0849 81be dc32 22be
00000280: bf21 8dbd 8b11 acbd aad4 533e 662b bdbe
00000290: 577a cd3d be35 28be 84d6 213e b974 36be
000002a0: 35be 6b3e 650a a33c 62d9 0cbe 418f e8be
000002b0: caea 46be 267a 303e 2a91 06be cb33 34bd
000002c0: fba9 26be d566 1abe e921 e13e 0ee0 17bd
000002d0: a473 033e a38b 413e a172 6f3e 58a4 24bf
000002e0: d2d4 913c c310 eb3e 3095 563e 5cd6 503d
000002f0: 0161 243e 2ef9 493e fecd 15be 2290 72be
00000300: 5757 ab3e e61a 24be c759 d6bd 1a51 753c
00000310: dd02 5a3e 1166 29be 97f6 95be 9655 25be
00000320: 18f4 d33d 867a efbc f927 02bd c136 b9be
00000330: 8726 c43d e2e9 d33d ff48 93bd 067f 47bd
00000340: d163 de3d 48db cebd f8c2 a5bd fe71 63bd
00000350: d5f9 1cbd 0d6c 433e 044c a7bd e7ce 5cbd
00000360: 39f9 e53c 6314 01bd 3f8c 33be fc3d 7dbf
00000370: 6961 16bd 2b4c 163e 9ed8 823e a5c3 3bbf
00000380: 0b90 4f3e 367a 023e b3b1 cbbb 0ac9 e53d
00000390: 2f6a 1e3e 849c ad3d a604 313e da25 a4be
000003a0: 62dc 9c3e 88d3 7cbe b4e8 4c3d 64bb 7d3e
000003b0: 5934 fabc 8e43 82be 6ed4 1abe ba46 2abe
000003c0: dc88 2fbd 650d bf3d 1384 e2be e6d3 363e
000003d0: 65cc d5bd 8f5b 55bd 6754 01bd 0592 24be
000003e0: cd08 5abe 46c3 97be c435 8d3d be49 2dbd
000003f0: e508 ccbe 4131 c0bb 14ee 0fbd 3064 13bf
-0.20853445 -0.020050557 -0.026589034 0.42896333 0.00024684425 -0.38026327 0.19946098 -0.07231021
-0.105646506 -0.10424967 0.04956224 -0.1301337 0.3244367 -0.17399743 -0.24288483 0.1848781
0.061100926 -0.34641454 -0.39294517 -0.043268334 -0.37209442 -0.19857518 0.09204078 -0.32737768
-0.10111407 -0.1102165 0.02467518 0.12606053 -0.12884325 0.16463445 -0.23163597 0.053619828
0.005626206 -0.14841211 0.27889016 0.29121798 0.009350633 0.25836778 0.09944746 -0.49173963
0.26170954 -0.06875287 -0.36997503 -0.05923248 0.20326939 -0.11282181 -0.4152959 0.30618137
0.02967061 -0.45439374 0.14901643 0.40720585 -0.34605315 -0.07474891 -0.2598998 -0.37749752
-0.15144642 0.055437285 -0.14637707 0.2328256 0.32239777 0.1635047 -0.042884167 -0.19350025
0.06706711 0.070302136 0.18454452 -0.32228953 0.1340327 0.108068734 -0.23682807 0.0040389164
-0.16953602 -0.16228104 -0.013954772 0.3728499 0.37772715 -0.14818038 -0.28150725 0.06023011
-0.34231392 -0.0006532682 0.07090347 0.0430456 -0.21733047 -0.088436656 -0.33363527 0.003150061
0.36549044 0.109150395 -0.18196428 -0.20391716 0.32157066 0.18632473 -0.5289915 0.25977483
0.28297657 -0.20706657 -0.27140877 0.1031546 0.09916285 0.077793084 -0.5373727 -0.1648788
-0.3059337 0.08907821 -0.12779324 0.3868039 0.22534193 -0.051215652 0.009858508 0.08133286
-0.28732556 -0.18264903 -0.16233954 -0.06045217 0.31181628 0.024251454 -0.21787576 -0.35837358
-0.004700256 0.49828905 -0.2777084 -0.13840707 0.51059943 0.29050738 -0.051960327 -0.09301695
0.15937111 -0.149824 0.28931376 -0.19389698 -0.02570315 0.019047849 -0.15734296 0.18587306
-0.1111774 0.11505448 -0.15976651 -0.11941346 0.17901386 0.34034836 0.22733344 -0.094858594
-0.1193826 0.062912315 0.3323182 -0.24792257 -0.20513697 -0.1969291 -0.38609427 -0.39996406
0.22146177 -0.17178847 -0.029154064 -0.14879385 0.044845913 -0.34902933 -0.2525103 -0.15839714
-0.06891202 -0.084017836 0.20686594 -0.36947173 0.100331 -0.16426751 0.15804487 -0.17817964
0.23021777 0.019902417 -0.137548 -0.45421794 -0.19425502 0.17234096 -0.13141313 -0.043994706
-0.1627578 -0.1507829 0.43971184 -0.03707891 0.12837082 0.18900923 0.23383571 -0.6431327
0.017801676 0.45911226 0.20955348 0.05098568 0.16052629 0.19723961 -0.14629361 -0.23687795
0.33465073 -0.16025886 -0.104663424 0.014972949 0.21290155 -0.16542841 -0.29289696 -0.1614593
0.103492916 -0.029233228 -0.031776402 -0.36174586 0.09577661 0.10347344 -0.07191657 -0.048705123
0.10858882 -0.10100418 -0.08093828 -0.055528633 -0.038324196 0.19084187 -0.08168796 -0.053908255
0.02807294 -0.031513583 -0.17533968 -0.98922706 -0.03671399 0.14677493 0.2555589 -0.73345405
0.20269792 0.12741932 -0.0062162518 0.11219986 0.15470193 0.084771186 0.1728693 -0.32060128
0.3063689 -0.24690068 0.05002661 0.24778515 -0.03054254 -0.25442165 -0.15120098 -0.16628543
-0.04285513 0.09328727 -0.4424139 0.1785427 -0.10439376 -0.05208927 -0.031574633 -0.16071327
-0.2129242 -0.2964117 0.068950206 -0.042306654 -0.39850536 -0.0058652465 -0.03513916 -0.5757475

hidden2.bias f4 [20]
00000000: 4b70 093e e7b8 2cbe 52cf 203e 6415 97bc
00000010: a776 1e3e 8b11 383e f4de 17bd 99b7 d93e
00000020: 747a 823e 451e 5dbe 4981 de3d fa8e cebc
00000030: c025 0d3f 7a8d d3bc c27a 4abe 8d4c 96be
00000040: 4b62 6a3e 5b7e 483e 5955 fa3e 6f66 fcbd
0.13421743 -0.1686741 0.15704086 -0.018442817 0.1547495 0.17975442 -0.03707786 0.42522886
0.2548405 -0.21593578 0.10864503 -0.02521466 0.55135727 -0.025824297 -0.19773391 -0.2935528
0.22889058 0.19579451 0.4889324 -0.12324225

bnhidden2.weight f4 [20]
00000000: fb15 663f 7963 5c3f cf20 473f eb0d 7e3f
00000010: 9806 4b3f b63e 463f 4b1f 4b3f 4291 6a3f
00000020: 6852 3d3f b739 643f 2d59 a53f 2710 823f
00000030: 9700 843f 90aa 3e3f da10 3e3f 1b58 a63f
00000040: 3afd 883f 78a1 553f f76d 823f 5ef9 813f
0.8987729 0.86089283 0.77784437 0.9923999 0.79306936 0.7743944 0.79344624 0.91627896
0.73953867 0.89150566 1.2917839 1.0161179 1.031268 0.7447901 0.74244463 1.2995638
1.0702279 0.83449507 1.0189809 1.0154226

bnhidden2.bias f4 [20]
00000000: bbe1 1ebd 642a 183d 6ff4 39be 7491 5d3e
00000010: 0113 e0bd 92fd fcbd 27bf a63e 4b8f e73d
00000020: 1cac 26be 047a f93d 8a65 72be 7b40 26be
00000030: 5f78 b3bd c7e3 0ebf 1acc 18be 2db5 08bf
00000040: f2d8 63bd 4626 063f 1984 003e 255c 243d
-0.038789492 0.0371498 -0.1815965 0.21637517 -0.10941125 -0.12353052 0.32567713 0.11306628
-0.16276592 0.12181476 -0.23671547 -0.16235535 -0.08763193 -0.5581631 -0.14921609 -0.5340145
-0.055626817 0.5240215 0.12550391 0.04012694

bnhidden2.running_mean f4 [20]
00000000: 76af 44be 3447 b3be 3caa 013b 8405 cf3b
00000010: 40c1 62be 6ee7 a7be 8a6f d0bd b340 70bd
00000020: 4d66 61be 2f07 a3be e632 e4be e410 8fbe
00000030: 99f1 eebd 5c67 00bf 6016 263f 5e32 38bf
00000040: 5e0d 6bbd 0299 9e3c c2ec 6cbc 213e 85be
-0.19207558 -0.3501526 0.0019785305 0.006317796 -0.22144032 -0.32793754 -0.101775244 -0.058655452
-0.22011681 -0.31841418 -0.44570082 -0.27942574 -0.11667175 -0.50157714 0.6487789 -0.71951854
-0.057385795 0.01936007 -0.014460744 -0.26023963

bnhidden2.running_var f4 [20]
00000000: b573 923e 2450 e03e 7d2a d23e 128f 3b3e
00000010: 5fb6 4e3e f8d6 913e e78c 453e 4f80 9b3e
00000020: 42d0 4f3e 8197 903e bca3 2b3f fcf0 703e
00000030: e0af f13d 7c74 d73e cc22 263e d446 863f
00000040: 01d8 d83e 827d a43e e384 543e 83d9 fd3e
0.28603902 0.43811142 0.4104804 0.18316296 0.20186757 0.2848432 0.19292031 0.3037133
0.20294288 0.28240588 0.67046714 0.23529428 0.118011236 0.42081058 0.16224211 1.0490365
0.42352298 0.32127005 0.20753817 0.4958001

output.weight f4 [5, 20]
00000000: a4f7 b4be e4e7 273f fb82 cdbd d4c1 61bf
00000010: e3aa d3be 0d09 c4be c340 49be 6dac a0be
00000020: 725c 143e 120c ccbe 9762 51be 628e 88be
00000030: b495 20bd a8cb 53be ac30 cbbd 1e89 e23e
00000040: 7b68 9e3e 3ca3 04bf 95c4 da3e 6347 6a3e
00000050: 3d5d a23c ddc8 593e c00b a43e 1a94 febd
00000060: 9f9d 5ebd bf2d fb3c 7698 0abe 563c 533e
00000070: 23e2 bb3d 764e 77be 205b e33d e90d 88be
00000080: 708a f83d fad7 1fbd e734 53bd 35e9 6e3e
00000090: 3a95 c13e 89c6 b0bd 99b5 ad3e 7df3 77bb
000000a0: 974f 953d c8e4 2fbb e1e8 883e a897 1ebe
000000b0: 1795 033e 8192 1dbe 3856 3e3e 56ef ae3e
000000c0: 1989 64bd 835a 36be 82a8 4b3e 3392 52be
000000d0: 22db a53d f131 52bd 98b8 803d 2d2f 64bd
000000e0: 2d04 fc3d d8c8 8d3e 5501 1d3e 153d 76be
000000f0: 7238 303b d190 03b9 6748 4f3e 1ee4 76bd
00000100: aa69 8d3e 6dff bbbe 84de e53e af34 a73e
00000110: 7256 1fbd fe23 07be d364 f53c 7147 743d
00000120: b444 d2bd eeb9 04be 9ac3 0c3e 5c50 8fbe
00000130: 0cb3 cdbe 807c ad3e 5bfb 83be a484 f1be
00000140: a4f3 ebbd 8abc eb3d 7396 923d 51a1 56bd
00000150: fc5f 8c3e a79a fabe 6ad2 8a3e 6193 d63e
00000160: 0c32 1b3e 5193 063f baf0 88bf 55bf 183f
00000170: dd6e 3dbf 9368 263f e7a8 e73e 0be5 84bf
00000180: 02a9 13bf a9be bd3e 8737 d0be 5f31 f0be
-0.35345185 0.6558821 -0.10034748 -0.88186383 -0.41341314 -0.38288155 -0.19653611 -0.3138155
0.1448839 -0.3985296 -0.20447765 -0.2667113 -0.039205268 -0.20683157 -0.09921393 0.44245237
0.30939087 -0.51811576 0.42728105 0.22878794 0.01981985 0.2126803 0.32040215 -0.12430592
-0.054349538 0.030661462 -0.13534722 0.20628485 0.091739915 -0.24151024 0.11101365 -0.26573113
0.1213578 -0.03902433 -0.051564123 0.23331149 0.37809163 -0.086316176 0.3392761 -0.003783434
0.07290571 -0.0026839245 0.26740173 -0.1548754 0.12849842 -0.15387918 0.18587577 0.34166974
-0.05579481 -0.17807965 0.198885 -0.20563583 0.08098437 -0.05131716 0.062852085 -0.055709053
0.12305484 0.27692294 0.1533254 -0.24046738 0.0026889113 -0.00012547082 0.20242463 -0.060276143
0.27619678 -0.36718312 0.44896328 0.32657382 -0.0389008 -0.13197324 0.029955303 0.059638444
-0.1026701 -0.12961552 0.13746491 -0.27990997 -0.40175664 0.33884048 -0.25777707 -0.4717151
-0.1152108 0.1151057 0.07157602 -0.052399937 0.2741698 -0.48946115 0.27113658 0.41909316
0.1515581 0.52568537 -1.0698464 0.5966695 -0.7399729 0.6500332 0.4524605 -1.0382398
-0.5767976 0.37059525 -0.40667364 -0.46912667

output.bias f4 [5]
00000000: e39b c13e 844c e03c 80a1 09be f105 d6bd
00000010: 7705 0bba
0.37814245 0.027380235 -0.13440514 -0.10450352 -0.00053032435
