weights_only.pth (torch_old, 11474 bytes, 20 tensors)

hidden1.weight f4 [20, 43]
000000 a6 43 db 3f 97 e6 83 3e de 1c 0b 3a f6 fe ff bc
       1.713002 0.25761864 0.0005306731 -0.031249505
000010 bd 49 2c be 37 c6 2f bf d0 74 b0 bf 77 83 65 bf
       -0.16825004 -0.68661827 -1.3785648 -0.89653724
000020 8d 0c 1c bf da 7a ea be 21 10 58 3e e6 e9 86 3d
       -0.6095665 -0.45796853 0.21099903 0.06587581
000030 92 1d 80 bd b2 a4 49 3e 6e 04 0e 3f 34 5d 73 ba
       -0.0625564 0.19691733 0.5547551 -0.00092836027
000040 f9 3a 07 3d f6 e7 f9 bd 3b e2 8e be 44 a2 cc be
       0.033015225 -0.12202446 -0.27906975 -0.3996755
000050 a7 63 ae be 5d 23 6b be 5b e7 96 3e da 46 cd 3b
       -0.34060404 -0.22962709 0.29473385 0.0062645497
000060 42 4c eb bc 76 36 23 be 6d 2b 13 be 96 63 7d 3c
       -0.028722886 -0.15938744 -0.14372034 0.015465638
000070 22 5b fe bc fc 9f 03 bd e1 ee fc 3e 75 1b e0 bd
       -0.031049315 -0.032134995 0.49401 -0.10942737
000080 3e d9 00 bd 8d 0f a5 bd 97 de ba bd 59 84 76 bd
       -0.03145718 -0.08059607 -0.09124487 -0.06018481
000090 2c 30 20 be 78 41 1b bd 72 ba 95 3c 33 b3 94 be
       -0.15643376 -0.037904233 0.01827738 -0.29042968
0000a0 06 0e f1 bd 39 9a cd bd a6 6a 0c be ad 24 f9 3f
       -0.11770253 -0.10039181 -0.13712558 1.9464318
0000b0 69 2a 91 bf 7e 79 46 bf 68 ad 3b 3e 10 e6 b8 3f
       -1.1341068 -0.7752913 0.18327868 1.444521
0000c0 04 4f a7 bd 56 f2 37 bf 60 c0 47 bf 3c 8c 61 bd
       -0.08169368 -0.7185415 -0.78027916 -0.05506538
0000d0 74 14 78 3e 69 2d 0d 3e 83 7a d6 be 1d 54 20 bc
       0.24226552 0.13786854 -0.41890344 -0.009785679
0000e0 7b a7 c6 be f0 9e 88 be cf b4 98 3e 6b a8 0f bd
       -0.38799652 -0.2668376 0.29825446 -0.035072725
0000f0 f3 fb 11 be 3d cc 89 be bd dd 4f bf dc 1f b0 be
       -0.14256267 -0.26913634 -0.8119772 -0.34399307
000100 9f f0 48 3d c8 3e 05 3e 10 4d 10 3d 61 3c d7 bd
       0.0490576 0.1301223 0.035229743 -0.10509563
000110 d5 22 0a be 44 9a 8f be df 78 00 3f 0d 75 05 be
       -0.1348985 -0.28047383 0.50184435 -0.13032933
000120 8c 76 93 be 15 96 9d 3e 98 35 63 3e f9 0d 07 3e
       -0.28801382 0.30778566 0.22188413 0.13188924
000130 9b c6 5f 3e b2 38 51 3d a5 71 04 bc d8 f1 06 be
       0.21853106 0.05107946 -0.008083736 -0.13178194
000140 39 98 2c be c4 dc fb bc 89 96 ca be 75 b1 bc be
       -0.16854943 -0.030744918 -0.39567974 -0.3685414
000150 0c 3d 34 be 6c 96 0d bd 70 00 4e 3f 15 0e d2 be
       -0.17601413 -0.03456728 0.8046942 -0.4102637
000160 68 3d 0b c0 6a 4f 1a bf c6 77 d6 3e da 0d e8 be
       -2.175623 -0.60277426 0.41888255 -0.45323068
000170 6f 10 e0 be 75 2b ee be 1e 55 fe 3c b2 27 7c be
       -0.43762538 -0.4651753 0.031046446 -0.24624518
000180 1a 1a 04 be 0d 2c fd bc 46 45 96 bc cc b6 65 bd
       -0.12900582 -0.030904794 -0.018343579 -0.05608253
000190 6d 1c 10 3f 61 cd f1 3d f3 b4 00 be c4 d1 fa bd
       0.56293374 0.11806751 -0.12569027 -0.12247041
0001a0 9d 51 ed be 2a a7 f6 be 07 f3 a6 bd 35 bf 2b 3e
       -0.46351328 -0.4817441 -0.081518225 0.16772158
0001b0 34 97 8a bc 97 cd 11 3b 6f c4 ee 3d 20 c9 ed be
       -0.016917802 0.0022247785 0.116585605 -0.4644251
0001c0 04 9b c5 3d 03 72 0f be a7 f6 bf be f3 3e 59 bf
       0.096487075 -0.14008336 -0.37492868 -0.8486168
0001d0 d5 ea aa 3e 18 5c 19 be 24 c6 19 be 0e bf 7b bd
       0.33382288 -0.14976537 -0.15016991 -0.0614615
0001e0 c1 9e d3 3d 2b f2 59 bd 23 a6 40 be 2b 3b 51 3e
       0.10333014 -0.053209465 -0.18813376 0.20432727
0001f0 89 b6 f9 bd 90 b5 de bb 63 05 b6 bd 8d af 91 3d
       -0.12193019 -0.0067965463 -0.08887746 0.07113562
000200 bf 64 de 3c 4b 85 a0 3f eb 08 31 bf 59 19 18 3d
       0.027147649 1.2540678 -0.6915423 0.03713355
000210 97 3e 79 3d 28 32 76 3f 12 84 1d bf 5b 4b 8c bf
       0.060850706 0.9617028 -0.6152965 -1.0960497
000220 82 a5 17 bf 9d 88 3f be c3 e3 ea be 4e 87 fe be
       -0.5923692 -0.18704458 -0.45876893 -0.49712604
000230 6d 3e 9c 3d 80 92 07 3e d8 33 de be c0 16 25 3d
       0.07629094 0.13239479 -0.4339893 0.0403049
000240 c0 ac 6c 3e f8 eb 41 bf d8 26 e1 be 31 48 a7 bd
       0.23112774 -0.75750685 -0.43974948 -0.08168066
000250 c6 d8 06 bf 50 0e d2 3e 1b c6 14 bd c1 0d 32 be
       -0.5267452 0.41026545 -0.03632174 -0.17388059
000260 7b 40 1c be 2b f4 b5 3e a2 0d 86 bf 85 f6 ab 3e
       -0.15258972 0.35537848 -1.047291 0.33586517
000270 6c b7 7b bf 0b 34 d9 be 2d 1d 25 bf fa 9b 7e bd
       -0.98326755 -0.42422518 -0.64497644 -0.06216047
000280 ea f3 b0 3d e1 2c 66 3e 35 50 18 3e 2b 61 a8 3d
       0.08640273 0.22478057 0.14874347 0.08221658
000290 25 4d 33 be 1b 94 51 bd 6f c0 79 be 5f c1 81 3a
       -0.17509897 -0.051166635 -0.24389814 0.0009899548
0002a0 f7 ff b4 be 40 91 92 3e 4b 01 2d be 95 d7 19 be
       -0.35351536 0.28626442 -0.16895024 -0.15023644
0002b0 24 a7 2e 3f 3b 93 d0 be 9b e7 38 bf 4e 89 30 bf
       0.68223786 -0.40737328 -0.722284 -0.6895951
0002c0 56 56 32 bf 2c 33 21 bf 96 69 15 bf 3f 16 c9 bd
       -0.6966299 -0.6296871 -0.58364236 -0.09818696
0002d0 b6 23 0b bd 18 64 5d bf 37 e8 de be 5b f0 e8 3e
       -0.033969603 -0.86480856 -0.4353654 0.45495877
0002e0 be 84 15 bf f8 d0 a4 3e 3c bf 5d bd 19 bc 40 ba
       -0.58405674 0.3219068 -0.054137453 -0.00073522475
0002f0 41 9f f6 bd 20 16 bb 3e f8 af dd bd 33 60 92 3e
       -0.12042094 0.36540318 -0.10824579 0.2858902
000300 5e ad 50 bc ab 56 71 3e 8f 41 67 3d 1e c1 9b bd
       -0.012736646 0.23568217 0.056459006 -0.076051936
000310 80 cd a7 3e 7d be ed be df 97 46 3e a2 45 a7 be
       0.32773972 -0.46434394 0.19393872 -0.32670313
000320 39 34 cf bd 9b 73 9f bd b8 85 ac be c4 2c ea be
       -0.101173826 -0.07785722 -0.3369577 -0.45737278
000330 80 ae f3 3b 49 1e 1a 3e a0 a7 ba bc 29 9e 79 be
       0.0074365735 0.15050615 -0.022785008 -0.2437674
000340 bd 96 30 be 11 e1 b9 bd 63 bc 05 be a9 b2 72 3e
       -0.17245002 -0.09076131 -0.13060145 0.23700966
000350 a7 f2 e0 3d 33 83 4b be 7f 14 88 be 56 db 1a 3f
       0.10983782 -0.19874267 -0.26578137 0.6049093
000360 7f 53 0c 3e e8 19 2e 3e 8d e2 89 be bf 61 16 3d
       0.13703726 0.1700207 -0.26930657 0.03671431
000370 67 ab 31 bd 71 53 04 40 61 f8 3a bf db d4 85 bf
       -0.043376353 2.0675929 -0.73035246 -1.0455583
000380 fb f3 06 3f ee 1c 50 be ff bb 71 3e c8 25 e1 bd
       0.52716035 -0.20323536 0.23606871 -0.10993534
000390 3e 87 ca 3e 2b b7 a8 3e 2d fc 04 bd af 97 8b bd
       0.39556307 0.32952246 -0.032467056 -0.06816041
0003a0 e4 c0 9a 3d 4a 9f a6 3e 1b 5c 0c 3e 16 57 26 be
       0.07556322 0.32543403 0.1370701 -0.16244158
0003b0 2b 85 42 be 9f 6a bc 3c 16 50 c2 3d 22 ae 9c bc
       -0.18996112 0.02300006 0.094879314 -0.019126002
0003c0 b8 02 91 be ec 85 2b 3c 2e 3b 9a bf 8e 2a a0 bf
       -0.28322387 0.010468941 -1.204931 -1.2512987
0003d0 d0 bc c7 3f 1e 12 77 be df e3 03 3e 74 02 b9 3d
       1.5604496 -0.24128005 0.12879895 0.09033671
0003e0 59 bc 57 3e bf 6f 94 3d a7 eb 84 be 55 d7 a5 3e
       0.21067943 0.072478764 -0.25961038 0.32390848
0003f0 4b b0 24 3d c2 25 82 be fd 45 51 3c aa 3c 28 3e
       0.04020719 -0.25419432 0.012773034 0.16429392

hidden1.bias f4 [20]
000000 f7 ae fc 3e 11 b6 12 3f df 6b d5 be 4a aa 86 bf
       0.49352238 0.5730906 -0.41683862 -1.0520718
000010 51 fc 93 be d5 2c 11 c0 cc 14 15 be 72 e5 03 bf
       -0.2890344 -2.2683613 -0.14558715 -0.5152198
000020 cc d7 00 3f bc e9 6a c0 4e 1f ca bf ce 5f 92 bf
       0.5032928 -3.670516 -1.5790803 -1.1435487
000030 4f ab 1d bf 8e 7b 10 bf 42 c9 21 3d 3c 9b d3 be
       -0.6158952 -0.5643853 0.039498575 -0.41329372
000040 f8 50 61 bf 1d 57 87 c0 12 05 48 3f cf 10 64 bf
       -0.88014174 -4.229384 0.78132737 -0.8908815

bnhidden1.weight f4 [20]
000000 16 8b b8 3f 5d 6c 81 3f a3 21 89 3f b2 4e b9 3f
       1.4417446 1.0111195 1.071339 1.4477141
000010 c6 fd a1 3f 1e 96 dc 3f d5 ff 9b 3f 66 68 a4 3f
       1.265557 1.7233312 1.2187449 1.284436
000020 3b 6a 91 3f 70 68 12 40 c8 3b cc 3f b6 12 b5 3f
       1.1360544 2.2876244 1.5955744 1.4146335
000030 07 38 cf 3f 82 23 02 40 a8 13 97 3f b1 9c e6 3f
       1.6188973 2.0334172 1.1802874 1.8016568
000040 84 15 83 3f 0c 84 28 40 24 2b d3 3f 7a f8 ef 3f
       1.0240941 2.6330595 1.649754 1.8747704

bnhidden1.bias f4 [20]
000000 a1 a1 2c 3d 9a 0e 1a 3f 22 92 96 3e 65 c4 38 be
       0.04214633 0.6017853 0.29408365 -0.18043669
000010 a5 72 14 bf f5 18 67 be 72 2f 08 3f b7 1d 99 bf
       -0.57987434 -0.22568114 0.53197396 -1.1962193
000020 1a f8 12 3f 70 cf 84 bf 4a 8e 9e be e7 e5 0e bd
       0.5740982 -1.0375805 -0.30967933 -0.03488722
000030 35 08 ee be 26 41 87 bf 27 fe 98 3e 10 a1 b1 bf
       -0.46490636 -1.0566757 0.29881403 -1.3877277
000040 ba 8d b9 3e 8d 2f af bf 04 34 2c 3f ae 77 c0 bf
       0.3624094 -1.3686386 0.6726687 -1.5036523

bnhidden1.running_mean f4 [20]
000000 00 ac 6e be 03 28 f6 bd 7a d2 94 bf ab 17 bb bf
       -0.233078 -0.120193504 -1.1626732 -1.4616598
000010 06 b5 06 bf 31 c5 94 bf 52 13 56 3f 0f 6c c6 be
       -0.5261997 -1.1622678 0.8362323 -0.38754317
000020 62 25 77 3e b0 59 59 c0 ec 37 60 bf 15 b9 e1 bf
       0.24135354 -3.396099 -0.8758533 -1.7634608
000030 5a cf aa bf bd 69 df 3d 2e 98 4c bf 8a f6 51 3f
       -1.3344529 0.1090884 -0.7991971 0.82016814
000040 b9 69 ac bf 30 90 80 c0 cc 63 21 3f 45 4b df be
       -1.3469764 -4.017601 0.630429 -0.43612114

bnhidden1.running_var f4 [20]
000000 a3 a6 43 41 98 d8 41 41 59 34 74 41 ba 19 32 41
       12.228183 12.115379 15.26278 11.131281
000010 a5 e9 19 41 72 a8 c2 41 db b4 8c 41 bc 29 26 41
       9.619542 24.332249 17.588308 10.385189
000020 22 2f 8c 41 55 f1 c5 41 e8 24 7d 41 b7 12 54 41
       17.523014 24.742838 15.82151 13.254569
000030 7c 6e 5f 41 1f a1 93 41 01 7d 54 41 1e d4 b4 41
       13.964474 18.453672 13.280519 22.603573
000040 aa e1 6b 41 f4 c2 01 42 8a 13 bc 41 ea ae b4 41
       14.742594 32.440384 23.50954 22.585407

hidden2.weight f4 [20, 20]
000000 77 f3 37 bf aa ae 21 bf a8 46 3c bd ff a7 c1 3d
       -0.7185587 -0.6315714 -0.04596582 0.09455871
000010 37 61 b9 3d 1b bf 14 3e 6b 71 2d 3c a9 4d c6 3e
       0.090517454 0.14526026 0.010586123 0.38731125
000020 7e 9c 63 bf 74 6a 47 bf 27 5a c5 bd 78 e8 6d be
       -0.88910663 -0.7789681 -0.09636336 -0.23233211
000030 66 84 81 bf 57 a3 d2 3d 78 7d f0 be 26 a7 c1 3e
       -1.011853 0.10285061 -0.46970725 0.37822837
000040 1b 8b 21 3e 68 46 19 bf 1b 3c 10 bf b4 ec f8 3d
       0.15775721 -0.59873056 -0.56341714 0.121545225
000050 43 52 e1 3d bc dd 69 3e 02 91 5b 3e f5 57 82 be
       0.11002018 0.22838491 0.21442035 -0.2545773
000060 8c 8c a0 3c 83 04 95 bd 3d 7c 2a 3f 33 5a 84 be
       0.019598268 -0.07276251 0.6659582 -0.25850067
000070 60 2d d5 3e 64 54 71 bf 5a 0f 39 3e 5d dc 3f be
       0.4163618 -0.94269395 0.18072262 -0.18736406
000080 a2 ee ef 3d 66 45 4b 3d 6c 80 89 be e5 73 10 be
       0.117154375 0.04962673 -0.2685579 -0.1410671
000090 4e 6a a6 3c 69 53 83 bf 46 eb 29 3f 14 34 37 ba
       0.020314362 -1.025983 0.66374624 -0.0006988656
0000a0 6b 50 8c 3e 9d 06 b5 3e e7 53 19 3d 1e d9 ab bc
       0.27405104 0.35356608 0.03743353 -0.020977553
0000b0 c3 a7 9d be 74 94 d3 be 2f 4c de 3d 92 9f 4b bf
       -0.30792055 -0.41324198 0.108543746 -0.7954036
0000c0 2d 14 74 3e a5 4e 46 3e 7d 34 56 bf fb 4e af 3e
       0.23835821 0.19365938 -0.8367384 0.34239945
0000d0 f2 c9 f7 bc 7b 59 a8 bf 2f 38 ae 3e bf cd 37 bf
       -0.030247662 -1.3152307 0.3402724 -0.7179832
0000e0 9c 8d 13 bf 35 6a a9 3d 1f 5b 1d 3e bb e6 4c bf
       -0.57637954 0.082722105 0.15366791 -0.80039567
0000f0 df 76 10 bd 49 dd 15 be 23 fe 9a be 1e 49 85 be
       -0.035269614 -0.14635195 -0.30272016 -0.26032346
000100 d0 a7 82 be 0d 93 96 be db 0e a7 bf 5b 0e 6c be
       -0.25518656 -0.29409066 -1.3051409 -0.23052351
000110 86 b8 a5 be 57 a4 5b 3f 27 f0 ed be 54 e3 ba 3e
       -0.32367343 0.8579764 -0.46472284 0.36501563
000120 b7 0f 29 be 91 7e 98 bd 63 7c a0 3d 4c 7f 4a bd
       -0.16509901 -0.074460156 0.07836225 -0.049437806
000130 97 5b 67 3d 2f f2 3f 3f b5 e3 3c be 8c d2 3e be
       0.05648383 0.7497892 -0.18446238 -0.18635005
000140 72 1f be 3e 24 eb 1a 3e 03 35 76 3e a4 69 ac 3e
       0.37133366 0.15128762 0.2404366 0.33674347
000150 26 0a 4d be c9 fe 77 bf e8 45 f9 be 88 3c 4a bd
       -0.20023403 -0.96873146 -0.48686147 -0.049374133
000160 7b 43 84 3d a2 61 fc 3d e9 ef 81 bf 05 98 d2 3e
       0.064581834 0.123233095 -1.015134 0.41131607
000170 e5 7a 37 3e ed 66 34 bf b2 13 af 3e af a6 08 bf
       0.17917974 -0.7046955 0.34194714 -0.5337934
000180 03 50 20 3d 76 5e dd bd 58 3e e6 3d 6e f0 c0 be
       0.039138805 -0.108090326 0.1124236 -0.37683433
000190 6e c5 60 bf 79 9d 40 bf 80 46 98 3e 3f e5 39 3f
       -0.87801254 -0.75240284 0.29741287 0.72615427
0001a0 71 6c 64 3e 85 ce f5 3e 34 fc 43 3e 53 00 8a 3f
       0.22306992 0.48009124 0.19139177 1.0781349
0001b0 eb 20 16 bf 7a 1b ca be 63 53 6b 3e 9e 9d 04 bf
       -0.5864398 -0.39474088 0.22981028 -0.51803005
0001c0 7a 4d 83 bf c8 37 0a 3f 08 66 19 bf 6c ef 03 3f
       -1.0258019 0.53991365 -0.5992131 0.51537204
0001d0 6b 34 d6 3e d6 c5 d9 be 94 ec 97 bd 85 1b 82 3f
       0.41836867 -0.4253375 -0.074181706 1.0164648
0001e0 87 40 5f bf 11 50 6d bf 82 0f 6c bd 62 dd 4b 3f
       -0.87207836 -0.92700297 -0.057631977 0.7963468
0001f0 4e 5c af 3d 2a 98 a3 3e d4 c6 02 3e ee a9 3c 3e
       0.085625276 0.3195203 0.1277116 0.18424198
000200 60 ca fa be 73 18 8a be 00 70 08 be 80 78 10 bf
       -0.48982525 -0.26971778 -0.13323975 -0.5643387
000210 42 50 3a bf 29 b7 60 bd 03 7b 21 bf 88 94 89 3f
       -0.72778714 -0.054862175 -0.63078326 1.0748453
000220 5f a4 3a 3e 33 29 8b be a7 4f 06 bd d6 4b 81 3f
       0.18226765 -0.2717987 -0.032790806 1.0101268
000230 bd d5 85 3d c1 5b dd be be 5b 20 be 2e 43 35 be
       0.06534908 -0.43234065 -0.15659997 -0.17701408
000240 78 7e 91 be 0c 0d c4 bd 15 74 8d bf d3 ff 24 be
       -0.284168 -0.09572801 -1.105105 -0.16113214
000250 43 32 56 bf d4 0d 7f 3f a9 30 a4 be 5a f6 e9 3e
       -0.83670443 0.99630475 -0.32068375 0.45695764
000260 a9 86 97 3c 9e b9 bf bc fe bc 21 3e a5 84 89 3b
       0.018496828 -0.023403939 0.15794751 0.0041967207
000270 d2 c1 f9 3d 6d dd 59 3f df 84 e5 be 53 3f 3e be
       0.121951714 0.85103494 -0.44827935 -0.18578844
000280 61 0a b2 be b8 78 99 3e e2 d3 5e 3f d5 d2 63 3f
       -0.34773543 0.29974914 0.8704206 0.8899358
000290 3b 7b 58 3f 4e 52 9b 3e 53 70 6d be b9 56 0c 3f
       0.84563035 0.3033623 -0.2318738 0.5481983
0002a0 38 e2 b3 bd df 98 01 3f 84 94 93 3e 74 ef 3e 3d
       -0.08783382 0.5062389 0.28824246 0.04661508
0002b0 99 48 9c be dd ca e2 3e fc b4 75 3d fc 89 99 be
       -0.30524138 0.44295397 0.059987053 -0.29988086
0002c0 4b b7 4f 3f 25 7b e9 be c9 d7 c0 3c 35 ec 99 be
       0.8113906 -0.45601764 0.023540394 -0.30063024
0002d0 24 46 02 3e a1 43 72 3d 9a 1a 47 3e ae 3e b4 3e
       0.12722069 0.059146527 0.19443741 0.3520407
0002e0 88 b6 a9 be 57 3e a1 bf 12 09 2a bf a6 e4 98 3d
       -0.33147073 -1.259715 -0.6642009 0.07465486
0002f0 bf 88 23 be 34 dd 1e 3d 7f c2 39 bf db f6 0c 3f
       -0.15970133 0.038785174 -0.725624 0.5506417
000300 f2 be d7 3e 04 66 c0 be e1 b2 c8 3e 26 eb 60 be
       0.42137867 -0.37577832 0.39198974 -0.21964702
000310 c6 52 c6 3e 8c bd ce 3d eb 39 5f 3e f0 ea c3 be
       0.38735026 0.10094747 0.21799438 -0.3826518
000320 2f 9c 9a 3e e1 0d 40 3e e8 56 94 3e d0 2f db 3d
       0.30197284 0.18755294 0.28972554 0.10702479
000330 85 bf f2 be d8 42 46 bf 74 62 d5 be 3d 4a e8 be
       -0.47411743 -0.77445745 -0.41676676 -0.4536914
000340 5b db 5b 3e 90 3d ff 3d 12 f9 70 bf 14 dd f5 3e
       0.21470396 0.12462914 -0.9413005 0.48020232
000350 5e 52 5a 3e b7 0c 75 bf 17 7f 9f 3e cf a4 d7 be
       0.21320483 -0.95722526 0.3115165 -0.42117926
000360 59 e2 0b be 59 c2 d2 3d 9b 24 38 3e f1 ae 17 bf
       -0.13660564 0.10290975 0.17982714 -0.59251314
000370 11 6a ff be 8e c8 db 3a 24 bd 5b bf c2 97 90 bd
       -0.4988561 0.0016768144 -0.8583548 -0.070601955
000380 dc c0 11 bf 5f 27 f0 3e 3d 64 17 bd 04 e2 ff 3e
       -0.56934905 0.46905038 -0.03696083 0.49977124
000390 ac 13 c8 3e 6c df 30 bd db 8b 92 3e ed 69 7e bf
       0.39077508 -0.04318182 0.28622326 -0.9938038
0003a0 7f 72 69 bf 10 95 48 be 14 f3 17 bf 1c ff 4c 3f
       -0.9119033 -0.19588113 -0.5935528 0.80076766
0003b0 fe b5 1f bf c0 03 e8 bd 73 13 3d 3b b7 7e 90 3d
       -0.62387073 -0.1132884 0.0028850704 0.07055419
0003c0 8e f6 ad 3e 57 a1 3d 3e c0 bd 25 3f f5 dc bd 3e
       0.3397717 0.18518578 0.6474266 0.3708264
0003d0 db af 97 3e da e2 1e 3e fe 72 80 3e 52 39 af bc
       0.29626355 0.15516225 0.25087732 -0.021389637
0003e0 bd 38 05 be 5e 80 ae be 52 1a 1a bf 9f 43 af be
       -0.13009925 -0.3408231 -0.6019641 -0.34231278
0003f0 09 97 bc 3e 06 da 48 bf d0 27 00 3f cc 69 f8 be
       0.3683398 -0.7845768 0.5006075 -0.48518217

hidden2.bias f4 [20]
000000 a6 44 6d 3f ff c6 12 be 1a f9 0d 3f 83 35 13 3f
       0.92682874 -0.14333723 0.55458224 0.5750353
000010 1c 19 9b bd 74 34 44 3e 15 80 04 3f cd c0 c9 3e
       -0.075731486 0.19160634 0.5175794 0.39404908
000020 df 65 80 bd 5b 2e 87 be 5d 41 84 3e 7e 53 41 3f
       -0.0626943 -0.26402554 0.25831118 0.75518024
000030 0e 02 9a be 4d fc 60 bd 80 cb b1 be 9b 31 a3 3f
       -0.30079693 -0.054928113 -0.3472557 1.2749513
000040 3f 4f 19 bf 71 2c a2 3c 19 10 9b bd d5 29 13 bf
       -0.59886545 0.019796582 -0.0757143 -0.57485706

bnhidden2.weight f4 [20]
000000 cf 36 99 3f 97 78 be 3f 0c b3 51 3f 27 20 bd 3f
       1.1969851 1.4880551 0.8191383 1.4775437
000010 14 cb 3b 3f 48 04 e2 3f 47 53 d9 3f 1f 8c e5 3f
       0.7335675 1.7657557 1.6978539 1.7933387
000020 cf dd 7d 3f 8b 86 6c 3f 38 a1 4c 3f a8 4a 6b 3f
       0.9916658 0.92392796 0.799335 0.9191079
000030 e5 0d 94 3f 49 b9 94 3f 9f ab ba 3f 92 16 fe 3f
       1.156674 1.1619045 1.4583625 1.9850638
000040 f2 6f 79 3f 15 06 a3 3f 4a 7f 89 3f 9c eb b4 3f
       0.9743644 1.2736231 1.074197 1.4134402

bnhidden2.bias f4 [20]
000000 ab 67 a8 3e 81 0a 1b 3e 41 e2 4e 3f 0b eb 05 bf
       0.32891592 0.15140726 0.80813986 -0.5231177
000010 bc 44 6e 3f fb 37 0f be 95 2a 31 bd 5f 2f 30 bf
       0.9307363 -0.13986199 -0.0432535 -0.6882228
000020 91 25 56 3e 9b 6e 0c 3f 37 9b 65 3f bd 07 84 3f
       0.20912768 0.5485627 0.89689964 1.0314862
000030 8a 2f b0 3e b3 65 1f 3b 6e 96 d9 be 8c cf 55 bf
       0.3441127 0.0024322092 -0.4249758 -0.83519816
000040 3c 49 d1 3e 30 4a 3a bf ce 5c b3 3d d6 35 0e bf
       0.40876186 -0.7276945 0.087579355 -0.555509

bnhidden2.running_mean f4 [20]
000000 7b 38 0f c0 eb 89 09 3f 08 8a a4 3e 70 54 58 bf
       -2.2378223 0.5372607 0.3213656 -0.8450384
000010 ac 11 94 be 00 d9 7b bf 7c b5 9c bf b3 47 8d bf
       -0.28919733 -0.9837799 -1.2242885 -1.1037506
000020 af 78 d1 3f 16 ad b7 be 07 a5 ba 3d ba 2c 8d bf
       1.6364955 -0.35874242 0.09113508 -1.1029274
000030 60 3b fd 3d 9b 64 af 3f fa c2 11 3f 69 f9 32 c0
       0.123648405 1.3702577 0.56938136 -2.7964728
000040 1d be 65 3e 11 c7 2e 3f 8e c4 8d be e9 08 a2 3f
       0.22435804 0.682725 -0.27689022 1.2658969

bnhidden2.running_var f4 [20]
000000 48 89 45 41 d7 af 00 41 2a 32 6c 40 39 bf 03 41
       12.346016 8.04293 3.6905618 8.234185
000010 27 b0 b1 40 79 60 2f 41 e2 9c 28 41 85 a4 3e 41
       5.552753 10.961053 10.538301 11.915166
000020 c4 7d 7e 40 76 0f c4 40 8d 99 b0 40 85 bb 4b 41
       3.9764261 6.1268873 5.518744 12.733281
000030 10 9c 94 40 d2 e4 87 40 28 06 0a 41 99 d7 6f 41
       4.6440506 4.246682 8.626503 14.990136
000040 72 ab cf 40 9e d7 52 40 63 76 ab 40 54 cb 1b 40
       6.4896784 3.2944102 5.3582015 2.4342852

hidden3.weight f4 [20, 20]
000000 ff 36 fa be d3 da b7 3d b0 cc 92 3e 2e 67 da be
       -0.48870084 0.08977284 0.2867179 -0.42656845
000010 78 cd 59 3f 32 44 73 be fd 92 a7 bd fb 25 f2 bd
       0.85079145 -0.23756483 -0.08182333 -0.118236504
000020 1c 97 d1 bc a8 65 1a 3f 47 00 97 3e 8e 05 6c be
       -0.02558475 0.60311365 0.294924 -0.23048994
000030 94 6e ee 3e 86 48 5c 3d c1 f9 9a be fe 82 87 3e
       0.4656874 0.0537801 -0.30268672 0.26467127
000040 29 83 ac 3e f5 74 65 3d 13 49 7d 3d 73 ee 0b be
       0.33693817 0.056019742 0.061837267 -0.1366518
000050 a7 8d 64 3f bb 15 b6 bf 1a dd 15 bd 63 c1 15 bf
       0.89278644 -1.4225382 -0.036587812 -0.5849821
000060 dd 3f df bc 90 f1 05 bc bf 40 24 be 05 18 33 bf
       -0.027252132 -0.008175269 -0.16040324 -0.69958526
000070 43 2a 80 be 51 3e 3a bd 11 96 cb bd b5 32 0b 3b
       -0.25032243 -0.045469586 -0.09940732 0.002123994
000080 40 15 e1 3b f2 d5 23 be 6b 8b 95 bf ac 31 55 3f
       0.0068689883 -0.15999582 -1.1683172 0.8327892
000090 72 73 9f bd bb 1b 19 be 1a c6 5d be 87 64 82 be
       -0.07785691 -0.14951985 -0.21657601 -0.2546732
0000a0 26 e7 42 be a3 51 eb 3d 8c 91 9c 3e df ae 1b be
       -0.19033489 0.1149018 0.30579793 -0.15203427
0000b0 f7 29 4c 3f 14 b0 49 bc a0 3f 9d be 37 ae 89 3b
       0.79751533 -0.012310047 -0.30712605 0.004201676
0000c0 db 6d c0 3d 8a 3e d3 3e 50 43 45 3f ac bb 8d be
       0.09395953 0.4125865 0.77055836 -0.27682245
0000d0 8d ce de 3e f5 91 27 3e 80 b1 9a be 5b 6e 53 3e
       0.4351696 0.16364272 -0.30213547 0.20647566
0000e0 40 ad 85 3e c6 e2 a0 bc b8 4c 7e 3d c0 6d 09 be
       0.26108742 -0.019639384 0.062084883 -0.13420773
0000f0 f4 3f 78 bd 44 53 ea bd 09 ba 4a 3f 21 a0 5f 3e
       -0.060607865 -0.11441663 0.7919012 0.21838428
000100 0c 5b 28 3f f9 14 84 bf 9e bb 2b be 22 11 0a 3e
       0.65763927 -1.03189 -0.16770789 0.13483098
000110 3a 6f 76 be 3c 30 09 3e d4 c2 4c 3f 0d 51 6a be
       -0.24065867 0.13397306 0.79984784 -0.22882481
000120 79 27 0a be 55 d1 cb bd 95 18 1d be 2b 60 ac be
       -0.1349162 -0.09952036 -0.15341409 -0.3366712
000130 24 9d 26 3d 95 80 ee bd fa 89 4d 3e 4a d2 91 bd
       0.040677205 -0.11645619 0.20072165 -0.071201876
000140 7a 8b a0 bd e1 06 cd bc 4f 17 42 3f 4b ba 8a 3e
       -0.07839103 -0.025027694 0.75816816 0.27095255
000150 02 29 e5 3d 09 7b 69 bf 3d c7 44 bf b3 37 73 3e
       0.11189462 -0.9120336 -0.76866513 0.23751716
000160 d2 24 67 bf 88 39 85 bd fd 4d ef 3e c7 ea 88 3e
       -0.9029056 -0.06505114 0.46739188 0.2674162
000170 fb be d2 be a3 81 65 bf ce cc 3f 3e 99 36 dd be
       -0.41161332 -0.89650935 0.1873047 -0.43205717
000180 e6 23 47 be 3f 45 22 bf 07 32 07 be 45 8c 5b bf
       -0.19447288 -0.6338691 -0.13202678 -0.8576091
000190 ce 62 0f bf 6a e7 68 bd d1 32 c4 bd ac ab 19 3e
       -0.5601014 -0.05686132 -0.09580005 0.15006894
0001a0 9f 3f cd 3d 86 dc 00 bf 74 7c e3 be a2 7f ee bb
       0.100219004 -0.5033649 -0.44430888 -0.0072783986
0001b0 8d 22 b6 3e 01 75 bd 3e 26 a9 a2 3c 43 a9 1a bf
       0.35573235 0.3700333 0.019856047 -0.6041452
0001c0 12 04 24 3d 79 13 63 3e 18 14 09 bf 29 59 24 be
       0.040042944 0.22175397 -0.53546286 -0.16049637
0001d0 04 ac e4 3e 92 37 3c 3f 7e 06 77 3e 49 5e 37 3e
       0.44662488 0.73522294 0.2412357 0.1790706
0001e0 8c 0a c2 3e 33 c8 00 3e ad f7 6d be dc 72 1e bf
       0.37898672 0.1257637 -0.23239012 -0.6189401
0001f0 d3 93 8c be 72 49 f9 3e ca 7e ee 3d 72 e6 29 bf
       -0.2745653 0.48688847 0.11645277 -0.66367257
000200 b2 c4 54 3e c7 63 c4 be 88 73 72 be 40 b0 47 3f
       0.20778158 -0.38357374 -0.23676884 0.7800331
000210 90 76 ae be a2 84 06 bd 2b 3f dc bd 49 8d ba 3e
       -0.3407483 -0.032841332 -0.10754236 0.36435917
000220 16 53 bb be fb df 0d bf a3 70 5f be c4 d0 ae 3e
       -0.36586827 -0.5541989 -0.21820311 0.3414365
000230 4b ab 7e 3e 3c 30 89 bc 20 d7 01 bf 31 94 10 bf
       0.2487003 -0.016746633 -0.5071888 -0.5647612
000240 54 65 82 bd d2 e0 f2 3e 95 59 a5 3e 38 ad 45 bf
       -0.06366983 0.4743715 0.32294908 -0.77217436
000250 d9 96 68 3e 7d cd ac bd 39 82 71 bd a7 7a 9b 3e
       0.22713794 -0.08437631 -0.05896208 0.30367014
000260 0d 5b 1c bf 85 83 54 be 4e 69 9d 3a c9 fe c3 3d
       -0.6107643 -0.20753296 0.0012009533 0.09570081
000270 93 dc 74 be af dd 0e bf d1 1d 35 bf 59 d1 44 3e
       -0.23912267 -0.5580701 -0.7074862 0.19220485
000280 9c 20 63 bb 68 04 df bd 4d 7c 3e 3f 82 f5 e2 3d
       -0.0034656888 -0.10889512 0.7440842 0.11081983
000290 62 da fd 3e f7 a5 81 bf 2e ff f8 be 74 f1 ea 3b
       0.49580675 -1.0128773 -0.48632187 0.0071698967
0002a0 1b 4c 8b bd ff ee d5 3e 93 3e 53 3f 2d 2d d8 bd
       -0.06801625 0.41783902 0.82517356 -0.105554916
0002b0 36 1d a5 3c 4e e7 fc bd d0 e9 a0 bc 02 f0 6f be
       0.02015553 -0.12348805 -0.01964274 -0.234314
0002c0 ae fa 48 bd f6 de 56 3e 3d 35 9a 3e ee 57 d4 3d
       -0.04906719 0.2098349 0.30118743 0.10368334
0002d0 ad ff 82 3e c5 23 e8 be a6 d0 39 be 39 05 22 be
       0.2558569 -0.4533979 -0.18146 -0.15822305
0002e0 c3 58 c1 bc 88 42 60 3e 2b 57 74 3f 55 a8 5d be
       -0.023601895 0.2190038 0.9544551 -0.21646245
0002f0 98 58 a8 be d8 07 62 be 7b a7 2a be 39 c0 34 3f
       -0.32880092 -0.22073305 -0.16665451 0.7060581
000300 40 01 c9 be 82 8d b8 bd 56 da c8 be d4 8b 82 bc
       -0.39258766 -0.090113655 -0.39229077 -0.015935816
000310 42 07 87 be 70 90 5a be 9f cf 95 be 66 76 33 bf
       -0.26372725 -0.21344161 -0.29259965 -0.70102537
000320 04 0c 59 be fa 0a 5f bd 34 f1 e2 3e 02 3f da bd
       -0.2119599 -0.054453827 0.44324648 -0.10656549
000330 fb b6 60 3e a3 be 56 bf 03 17 38 bf 80 32 29 be
       0.21944802 -0.8388464 -0.71910113 -0.1652317
000340 72 aa ed bd e2 36 de 3e b6 2a a3 3e 43 97 b4 be
       -0.116047755 0.43401247 0.31868523 -0.35271654
000350 53 6d e9 3e 04 c1 28 3e fa 78 c0 be 3e 22 83 be
       0.4559122 0.1647988 -0.37592298 -0.25612062
000360 9c d8 ef 3e 3a 4a de 3e b7 77 e8 bd 93 d8 d1 3d
       0.46844947 0.43416005 -0.11350959 0.102463864
000370 d3 e4 ad bd 0d 23 32 3d e5 cb f0 3e df 18 98 3d
       -0.084909104 0.04349046 0.4703056 0.07426619
000380 2c 6b 43 3f 66 cc 29 bf 15 09 66 bd 9a 42 5e 3e
       0.76335406 -0.6632751 -0.056161005 0.21705094
000390 8b 88 27 be 16 28 fe 3e d4 f6 25 3f 51 a7 89 be
       -0.16360681 0.49639958 0.64829755 -0.26885465
0003a0 83 17 13 3e 5b 79 83 3d fe 3e a5 be c3 ab df bd
       0.14364438 0.06419631 -0.32274622 -0.10921433
0003b0 a1 02 8e 3e c1 ec 35 3d 88 03 31 3d f3 fe b4 3d
       0.2773638 0.04441524 0.04321626 0.0883769
0003c0 ce a4 06 3f 0a bd 85 be c6 fd b6 be 96 e0 3a bf
       0.5259522 -0.26120788 -0.3574049 -0.7299894
0003d0 21 04 1e be 28 ab 3a 3e e5 e3 96 3f 26 b0 64 bf
       -0.15431263 0.18229353 1.1788298 -0.8933128
0003e0 ea 6b c5 3c 5a f6 6f bd bd b0 0f be b5 6e c0 3c
       0.024099309 -0.05858455 -0.14032264 0.02349029
0003f0 53 82 24 be 15 ef e9 3d c1 3c 29 bd 71 29 84 3e
       -0.1606534 0.114225544 -0.041317705 0.25812867

hidden3.bias f4 [20]
000000 89 ea 03 be 0a a3 8d be 71 23 36 be fe 3c 25 3d
       -0.12882437 -0.2766345 -0.17786957 0.04034137
000010 0b 59 05 3f d9 29 42 be fb 62 16 3f 4d aa 32 3f
       0.52088994 -0.18961276 0.5874478 0.6979111
000020 75 3e bc bd 11 b2 fc 3e 5a 46 5f be 18 7b 5b 3e
       -0.091916 0.49354604 -0.2180418 0.21433675
000030 75 9e bb 3c 1c 40 17 3f f9 a9 3e 3f a5 b0 f8 bd
       0.022902707 0.590822 0.7447811 -0.12143067
000040 b8 48 e5 3e 59 d6 0b 3f 18 94 15 3e 09 88 4b be
       0.44782043 0.54623944 0.14607275 -0.19876112

bnhidden3.weight f4 [20]
000000 79 b5 c4 3e e1 e8 b7 3f a5 06 fb 3e a0 50 d1 3e
       0.38419703 1.4367944 0.49028507 0.40881824
000010 be 81 0c 3f 2d db d2 3e e0 3c 07 3f ad 47 e2 3e
       0.5488547 0.41182843 0.5282726 0.4419531
000020 fc dc dc 3e 64 a9 09 3f 74 85 e7 3e fd 97 b9 3e
       0.43137348 0.53774095 0.45219004 0.3624877
000030 57 18 0b 3f 79 76 43 3f df f6 e5 3e 6d 69 04 3f
       0.54334015 0.7635265 0.4491491 0.51723367
000040 60 2c 17 3f e0 51 3d 3f 3f 84 a9 3e 10 d8 8c 3f
       0.59052086 0.73953056 0.33108708 1.1003437

bnhidden3.bias f4 [20]
000000 2d b3 32 bd 04 22 94 bf e9 10 d1 3c 07 72 b4 3d
       -0.043627907 -1.1572881 0.025520759 0.088108115
000010 44 38 1a 3d 0b 9e ce 3d 3f 42 fb bd 08 99 b9 3d
       0.037651315 0.10088738 -0.12268495 0.090623915
000020 8b dd da 3d b8 2a b0 bd 51 5a 84 3d 9e 53 12 3d
       0.10686787 -0.08601898 0.06462539 0.035724275
000030 de 56 58 be a6 c4 36 be f0 4c 92 3e 03 a2 11 3e
       -0.21126887 -0.17848453 0.28574324 0.14221959
000040 a6 18 f6 bd d9 44 7f 3d 1f 21 73 ba 93 d2 89 bf
       -0.1201642 0.062321518 -0.000927465 -1.0767387

bnhidden3.running_mean f4 [20]
000000 68 07 94 3f 3e a9 f7 bf 96 6d c9 3f db 6d 82 3f
       1.156476 -1.9348524 1.5736568 1.0189775
000010 e4 dc cc be 43 cf 49 bf c3 d2 be 3e aa 3e 79 be
       -0.40012276 -0.7883188 0.37270173 -0.2434031
000020 be f7 98 3f f3 e2 61 3d 72 9b 7d bd 18 35 e9 3f
       1.1950605 0.055148076 -0.061915822 1.8219328
000030 8d e3 1e bf 4d 12 8b 3e 2e cb 99 3e 0c c9 a8 be
       -0.62065965 0.271624 0.30037826 -0.32965887
000040 58 34 2d 3e 69 02 4f bf 4b b7 19 40 1a 97 07 c0
       0.16914499 -0.8086305 2.4018123 -2.1185975

bnhidden3.running_var f4 [20]
000000 bb 0c e2 40 9b b8 0d 41 e6 49 eb 40 5b 0f bf 40
       7.064054 8.85757 7.352771 5.9706244
000010 19 fe 0b 41 73 77 e8 40 05 86 fe 40 4b 1f e6 40
       8.749536 7.264581 7.95386 7.19132
000020 57 61 f5 40 24 7c 00 41 0f b9 02 41 ac 71 02 41
       7.6681323 8.030308 8.17018 8.152752
000030 60 a1 c6 40 5c 26 18 41 44 55 1c 41 ef 9d ac 40
       6.207199 9.509365 9.770817 5.394279
000040 7e 68 03 41 a1 82 4e 41 42 2e 1b 41 de 9b f9 40
       8.213011 12.906892 9.698793 7.8002768

output.weight f4 [5, 20]
000000 53 ee e9 3e 9a ea 3a be 2b 22 21 3f 0a b0 18 3e
       0.4568964 -0.18253556 0.6294276 0.14910904
000010 16 49 b5 be b5 d2 b3 3e ac c5 34 bf 9b 53 81 bf
       -0.35407323 0.35121694 -0.70614123 -1.0103639
000020 d4 1e ed 3d bf 46 5f bf d1 36 e7 3e 4b 21 e8 3e
       0.115781456 -0.87217325 0.4515901 0.453379
000030 88 eb e3 be 4a dc 5b bf ae de 76 bf 76 c8 43 3e
       -0.44515634 -0.8588301 -0.9643353 0.19119439
000040 94 29 75 bf f0 57 10 bf e0 29 9c 3e b5 80 67 3b
       -0.9576657 -0.5638418 0.30500698 0.0035324518
000050 c9 58 06 3f 90 c2 25 3d 7e 36 2b 3f b7 da 9a 3e
       0.52479225 0.040468752 0.66880023 0.3024499
000060 39 9f 26 3e 34 fd 20 bb 5c 74 59 bb d0 94 cf bd
       0.16271676 -0.0024564983 -0.0033180928 -0.101358056
000070 68 85 7d 3e 2b 20 28 be 05 cf 9b 3e 8b e0 bf 3e
       0.24757922 -0.16418521 0.3043138 0.37476
000080 6d 7a a0 be f9 a8 f7 bd 02 99 97 bd b8 4b 1c 3e
       -0.31343403 -0.12092776 -0.07402231 0.1526326
000090 76 98 68 bd f2 b2 6f 3e cb a9 ae 3e 1f 1a 58 be
       -0.056786023 0.23408106 0.34113917 -0.21103714
0000a0 92 69 07 3e bd 78 37 bd 4d 1f b8 3e e6 f4 8a 3d
       0.13223866 -0.04479288 0.3596138 0.06784992
0000b0 31 99 34 3e e4 f4 a9 be ea 9b 73 3e aa d3 b7 bd
       0.17636563 -0.3319465 0.23789945 -0.089759186
0000c0 33 e5 90 bd 6e 64 33 3d ea 4d 9c 3c 4f a4 62 3d
       -0.07074966 0.04379695 0.019080121 0.055332478
0000d0 9c 2a 83 b8 5b a0 95 3e 56 bd 7d 3e f6 3f 17 be
       -6.2545034e-05 0.29223904 0.24779257 -0.14770493
0000e0 b0 1b ed 3d 47 c9 f1 3e 5f 57 d6 3c e9 a0 8c be
       0.115775466 0.47223875 0.026164709 -0.27466515
0000f0 20 fb 08 bf 3a 43 32 3e 6d ec ab be 74 ba cd b9
       -0.53508186 0.17408457 -0.33578816 -0.00039239565
000100 1b ca e1 bd c1 47 9d be 63 79 f4 3e 40 61 0d 3e
       -0.11024877 -0.30718806 0.4774886 0.13806629
000110 11 1e be be b1 3a 69 3e 01 58 ca be b4 e9 24 be
       -0.37132314 0.22776295 -0.39520267 -0.16104776
000120 dc 7b 2e 3e 9d 8c 5b 3e b6 00 a4 3e e4 85 46 be
       0.17039436 0.21440358 0.32031792 -0.19387013
000130 51 48 d0 3e 57 2e 16 3f 92 ae de be c1 24 0f be
       0.40680173 0.5866446 -0.43492562 -0.13978864
000140 c4 21 df be dd 38 2f 3f 52 a5 a0 be 80 54 51 bf
       -0.4358045 0.6844614 -0.3137613 -0.8176956
000150 a5 8f 2b bf 78 a9 bd be b4 f7 f0 3e 29 6b 84 3e
       -0.6701606 -0.37043357 0.47063982 0.25863007
000160 c3 ef 69 bf 95 e7 b2 3e 16 3a b1 be df ac 30 bf
       -0.9138147 0.34942308 -0.3461463 -0.6901378
000170 c0 c8 b9 3e 55 9d c2 3e 28 65 a3 3e 2e fa 26 3f
       0.36285973 0.3801066 0.31913114 0.65225494
000180 d8 71 bb 3e 42 c6 18 3d 96 f1 05 bf 11 bd c9 3e
       0.36610293 0.03729845 -0.52321756 0.3940206

output.bias f4 [5]
000000 a2 70 65 3e cf 55 02 be f5 5d de bd 61 99 ca 3d
       0.22406247 -0.12728046 -0.10857765 0.09892536
000010 f8 cd 02 3e
       0.12773883
