weights_only.pth (torch_old, 7401 bytes, 14 tensors)

hidden1.weight f4 [20, 43]
-1.2181472 0.056180213 -0.03699709 0.00060498784 -0.050592534 -0.03142965 -0.22298059 -0.010897947
-0.1700324 0.077429965 0.31711823 -0.060589902 0.040006604 0.029558191 0.03204293 0.027015181
-0.026395492 -0.2324926 -0.15127033 -0.20946707 0.02471183 0.037974093 0.24099088 0.055786133
0.032232713 0.06062285 0.017722748 0.12963657 0.12218161 0.206789 0.17992426 0.020295797
0.030637251 0.011388082 0.047439568 -0.012557027 -0.003891617 0.08513007 0.034180798 0.13691181
0.0713694 0.034530673 0.07530413 -0.1887438 -0.09327969 -1.1689804 0.00080723234 -0.0048804083
0.045272328 0.093279205 0.09507651 0.060103524 0.07864859 0.046340313 -0.12736644 -0.08565742
0.088344075 0.06839486 -0.008617273 -0.027087495 -0.09892581 -0.15518764 -0.04620848 0.31401888
0.044335175 0.052373942 0.09188731 -0.04579608 -0.1289723 -0.23426923 0.14941075 -0.099488854
-0.14438663 -3.7701062e-05 0.10209243 0.0580547 -0.00021800907 -0.015978187 -0.030167367 -0.025117405
-0.03968385 -0.20451558 -0.04641033 -0.011918484 -0.021255238 -0.02411263 -0.32050258 0.42603126
0.24919924 0.026737653 -0.10770035 -0.012831185 0.24929345 -0.40263855 -0.21955237 0.14263478
-0.041397028 0.124206245 0.18967079 -0.032326978 -0.16043137 0.135168 0.23642872 0.08641563
0.18997256 -0.1661189 0.13625014 -0.11129784 -0.1682753 -0.16364291 -0.16220354 0.23567438
0.112692915 0.19634104 -0.109471746 0.10566625 -0.2226581 0.1320322 0.11170771 0.11958388
0.02620887 -0.15989703 -0.093094416 -0.11571694 -0.1410378 0.18452817 0.1410886 0.012248047
0.0034896336 1.3310798 -0.06268723 0.029429708 -0.027395869 0.07441775 0.008181741 -0.094625175
-0.26965556 -0.035474554 -0.43623695 -0.28965157 0.029631013 -0.022036387 -0.29552642 -0.19620532
-0.20677151 -0.0023759156 0.0064949514 -0.12877776 -0.107207015 0.151775 0.21640855 -0.10610193
0.063516416 -0.10076965 -0.13492975 -0.08632011 0.0809704 0.32631072 0.6139359 0.24948841
0.09051074 0.025668588 0.0695596 -0.05963565 -0.044256397 -0.0029736478 0.16069585 -0.03529321
0.22436695 0.13633479 0.03255115 -0.046201047 0.49638015 -0.027094485 -0.03013606 -0.3152546
0.35527462 -0.27333036 -0.29348916 -0.37782216 -0.057397347 -0.15140162 0.07821963 0.11149618
-0.016229376 0.14424643 0.05486337 0.012777242 -0.34490344 -0.19486643 -0.00422293 0.2971504
-0.096959114 0.20449813 0.1438062 0.016076429 0.2784804 -0.5007155 0.014421696 0.06454294
-0.18770635 -0.54795444 0.026236957 -0.21219397 -0.07268409 -0.11433314 0.043647256 -0.006599126
-0.028673645 -0.14288701 -0.05322488 -0.2697738 -0.12264454 -0.086513534 -0.021389881 1.3348413
-0.10154316 -0.030371731 0.04487545 0.008024852 -0.012027698 -0.033603076 -0.49457482 -0.059616055
-0.07539967 0.32377836 0.05363351 -0.05065966 0.11613395 0.092166394 -0.053402107 0.055777017
0.020057846 -0.03716379 -0.6850643 -0.08734352 -0.08098089 0.11237508 -0.021680024 -0.0229105
0.0052145137 0.07050308 0.41247758 0.049227223 0.025702514 0.123385325 -0.11448707 -0.0150845805
-0.11009275 0.06172603 -0.05620755 -0.0371247 0.02857853 -0.03772722 -0.18216379 -0.13787068
00000000: 3fec 9bbf 391d 663d 438a 17bd 0c98 1e3a
00000010: 1e3a 4fbd 60bc 00bd 0655 64be 4d8d 32bc
00000020: f91c 2ebe 9a93 9e3d 525d a23e 1e2d 78bd
00000030: f7dd 233d 0524 f23c 733f 033d f14e dd3c
00000040: 5c3b d8bc 8a12 6ebe 9ce6 1abe 897e 56be
00000050: 7770 ca3c b98a 1b3d 50c6 763e 0080 643d
00000060: 7306 043d aa4f 783d 4c2f 913c 73bf 043e
00000070: 5a3a fa3d 7fc0 533e 113e 383e 5f43 a63c
00000080: f9fa fa3c 1495 3a3c fe4f 423d fdbb 4dbc
00000090: 800a 7fbb ad58 ae3d 2a01 0c3d 9c32 0c3e
000000a0: 1f2a 923d 0970 0d3d 0d39 9a3d 0e46 41be
000000b0: 6c09 bfbd 26a1 95bf 729c 533a d5eb 9fbb
000000c0: 7a6f 393d 2b09 bf3d 79b7 c23d 1d2f 763d
000000d0: 8312 a13d 57cf 3d3d 596c 02be 286d afbd
000000e0: bded b43d 9b12 8c3d 762f 0dbc 98e6 ddbc
000000f0: 9d99 cabd 82e9 1ebe 1a45 3dbd 15c7 a03e
00000100: cd98 353d 0f86 563d 6a2f bc3d ac94 3bbd
00000110: 5111 04be 46e4 6fbe 22ff 183e d0c0 cbbd
00000120: 17da 13be 3521 1eb8 d615 d13d c4ca 6d3d
00000130: 5d99 64b9 b0e4 82bc 8e21 f7bc 04c3 cdbc
00000140: 888b 22bd 886c 51be c218 3ebd bf45 43bc
00000150: 771f aebc da87 c5bc ea18 a4be c520 da3e
00000160: 162e 7f3e ec08 db3c 0092 dcbd e439 52bc
00000170: c846 7f3e a426 cebe 56d2 60be da0e 123e
00000180: ee8f 29bd d85f fe3d 0f39 423e 4b69 04bd
00000190: 1f48 24be 7b69 0a3e 5f1a 723e aefa b03d
000001a0: 2b88 423e 131b 2abe 2885 0b3e 1ff0 e3bd
000001b0: 5c50 2cbe 0292 27be af18 26be a054 713e
000001c0: 8bcb e63d a00d 493e b932 e0bd 8c67 d83d
000001d0: 7c00 64be 7333 073e 03c7 e43d 65e8 f43d
000001e0: fcb3 d63c 0cbc 23be 49a8 bebd 01fd ecbd
000001f0: 376c 10be f4f4 3c3e 8879 103e 08ac 483c
00000200: 56b2 643b d360 aa3f 2a62 80bd 9216 f13c
00000210: 4d6d e0bc 5568 983d b60c 063c d8ca c1bd
00000220: 4b10 8abe c44d 11bd 735a dfbe 364d 94be
00000230: bdbc f23c a785 b4bc 3d4f 97be 0cea 48be
00000240: e9bb 53be 40b5 1bbb 9ad3 d43b 51de 03be
00000250: 5a8f dbbd e86a 1b3e 349a 5d3e f84b d9bd
00000260: e514 823d 5160 cebd 062b 0abe 99c8 b0bd
00000270: cfd3 a53d 3312 a73e e72a 1d3f e479 7f3e
00000280: b25d b93d ee46 d23c 4375 8e3d 8344 74bd
00000290: 3246 35bd 88e1 42bb 748d 243e 9d8f 10bd
000002a0: 73c0 653e 599b 0b3e 5b54 053d 4f3d 3dbd
000002b0: 8a25 fe3e 41f5 ddbc e6df f6bc 0d69 a1be
000002c0: 8ee6 b53e f5f1 8bbe 3644 96be e871 c1be
000002d0: 7b19 6bbd 0709 1bbe 9d31 a03d 1c58 e43d
000002e0: 78f3 84bc 56b5 133e 6ab8 603d a357 513c
000002f0: 2f97 b0be 118b 47be 8160 8abb 1924 983e
00000300: 8092 c6bd f567 513e ef41 133e b7b2 833c
00000310: fc94 8e3e e42e 00bf fa48 6c3c 172f 843d
00000320: 1836 40be be46 0cbf e3ee d63c 6049 59be
00000330: 65db 94bd 7e27 eabd 77c7 323d 7b3d d8bb
00000340: fee4 eabc f950 12be 5502 5abd cb1f 8abe
00000350: 102d fbbd 022e b1bd d539 afbc 14dc aa3f
00000360: dcf5 cfbd 23ce f8bc 52cf 373d ab7a 033c
00000370: d20f 45bc 61a3 09bd e938 fdbe f72f 74bd
00000380: 246b 9abd 47c6 a53e d0ae 5b3d 8180 4fbd
00000390: a3d7 ed3d bcc1 bc3d 2bbc 5abd 7176 643d
000003a0: 5a50 a43c 0f39 18bd 6060 2fbf 29e1 b2bd
000003b0: 4fd9 a5bd e824 e63d 4e9a b1bc cdae bbbc
000003c0: 83de aa3b eb63 903d 4330 d33e 7ca2 493d
000003d0: 148e d23c 72b1 fc3d 3278 eabd 5125 77bc
000003e0: 4f78 e1bd 6fd4 7c3d e339 66bd 1210 18bd
000003f0: 851d ea3c dc87 1abd 2589 3abe f92d 0dbe

hidden1.bias f4 [20]
-0.5850606 -0.74173945 -0.3408301 -0.085940994 -0.36391425 -0.19053508 -0.7182784 -0.48283294
0.03240553 -0.5275225 -0.6177342 -0.85242826 0.018281126 -0.58540773 -1.4401838 -0.4356807
-0.3719501 -0.72921187 -0.43050674 -0.035137895
00000000: 88c6 15bf a3e2 3dbf 4881 aebe d501 b0bd
00000010: f852 babe a11b 43be 18e1 37bf e135 f7be
00000020: a9bb 043d b70b 07bf d423 1ebf bd38 5abf
00000030: 4dc2 953c 48dd 15bf f157 b8bf 8a11 dfbe
00000040: 3e70 bebe a1ad 3abf 616b dcbe c1ec 0fbd

bnhidden1.weight f4 [20]
0.9490559 0.7697889 0.8825266 1.1847892 0.6735835 1.0607629 0.795057 0.66776
0.63230646 0.8943636 1.1503527 0.9705053 0.74550164 0.9278062 1.4402308 0.676273
0.9031706 1.4883492 0.7514556 0.83480704
00000000: 54f5 723f e310 453f 43ed 613f 2ca7 973f
00000010: f86f 2c3f 14c7 873f db88 4b3f 52f2 2a3f
00000020: d6de 213f 03f5 643f c23e 933f 0973 783f
00000030: 32d9 3e3f b584 6d3f 7c59 b83f 3a20 2d3f
00000040: 3036 673f 3a82 be3f 655f 403f eab5 553f

bnhidden1.bias f4 [20]
-0.33821443 -0.25247744 0.05245912 0.1251774 0.15064414 -0.07274195 -0.43901893 0.00487016
0.22184366 -0.026752423 -0.5289395 -0.37160513 -0.20376338 -0.36147255 -1.0497563 -0.022267556
0.18535376 -0.22331747 -0.025482142 -0.40736035
00000000: 712a adbe b944 81be 60df 563d 812e 003e
00000010: 7542 1a3e bbf9 94bd 17c7 e0be dd95 9f3b
00000020: fc2a 633e e627 dbbc 9468 07bf 0743 bebe
00000030: 59a7 50be ee12 b9be 6a5e 86bf 736a b6bc
00000040: 60cd 3d3e 56ad 64be edbf d0bc 8991 d0be

bnhidden1.running_mean f4 [20]
-0.5435013 -0.72776353 -0.40175098 -0.14003995 -0.37185168 -0.22115111 -0.7358208 -0.49325365
0.019215876 -0.5997999 -0.6673463 -0.86209327 0.037871737 -0.547746 -1.3834633 -0.48087117
-0.44305462 -0.63774586 -0.38703167 -0.070722796
00000000: e722 0bbf b64e 3abf 4eb2 cdbe a266 0fbe
00000010: 5863 bebe 7075 62be c05e 3cbf be8b fcbe
00000020: 9d6a 9d3c 7c8c 19bf 35d7 2abf 25b2 5cbf
00000030: 651f 1b3d 1539 0cbf 5315 b1bf bf34 f6be
00000040: 0ed8 e2be 5043 23bf 0429 c6be 1dd7 90bd

bnhidden1.running_var f4 [20]
2.1853359 2.1087086 2.9396858 2.6777654 2.815155 3.6907825 1.7461541 1.6336672
2.0134997 2.3482828 1.8171799 2.156848 2.5419722 1.4044331 4.439192 2.4905849
3.212874 5.8061776 1.691226 1.4506867
00000000: 8bdc 0b40 15f5 0640 d023 3c40 8260 2b40
00000010: 802b 3440 c835 6c40 fa81 df3f 021c d13f
00000020: 2edd 0040 444a 1640 5a99 e83f cc09 0a40
00000030: acaf 2240 77c4 b33f dc0d 8e40 be65 1f40
00000040: ba9f 4d40 35cc b940 187a d83f 1ab0 b93f

hidden2.weight f4 [10, 20]
-0.24664438 -0.34812823 0.24000971 0.029119637 -0.41590485 -0.008985027 0.49940836 -0.18307072
-0.30051586 0.20489115 0.01854818 -0.24399097 0.06715581 -0.029434951 -0.15674037 0.11865312
-0.36038494 0.068674915 -0.41408446 -0.54918575 0.14734349 0.45344004 -0.73263156 0.13592039
0.12758784 0.11677387 0.18404996 0.42150024 -0.14146386 -0.5545514 0.01999476 0.17759012
0.100349806 -0.11984804 0.0035371608 -0.31200364 0.4052831 -0.10262425 0.11833631 0.16134813
-0.15547326 0.10880059 0.037522037 -0.119563326 0.11729802 0.651429 -0.14047442 -0.04054565
-0.1626228 -0.01232562 -0.28452644 -0.015038486 -0.08448994 -0.05163903 -0.7031386 -0.24510027
0.005425213 0.90071636 0.11217172 -0.19760899 0.072132744 0.14443591 0.103572406 -0.44358435
-0.12103799 0.18679272 -0.17871617 -0.08042542 0.012451867 -0.38293818 -0.13760114 -0.022235414
0.03918063 -0.03352047 -0.039379235 0.0624214 -0.007772866 -1.4108988 0.18516906 -0.08928222
-0.20000255 -0.47626868 -0.3607308 0.30722812 -0.17861202 -0.12694925 0.22224052 -0.31432202
-0.4038371 0.14038582 -0.16754583 0.19738632 -0.21067825 0.16417365 -0.47853956 -0.4135077
-0.36866397 0.2816431 -0.29627705 -0.36321503 -0.20369588 -0.30469775 0.23771925 -0.19772172
-0.41698506 -0.22460862 -0.002904136 -0.12892981 0.059671145 0.13631648 0.2334911 -0.52877575
-0.18341622 0.082566276 -0.26499543 0.3590116 0.42302388 -0.28803584 -0.05835373 -0.35821232
-0.0019300563 0.26604477 -0.07731354 0.23830768 0.16398014 -0.11889574 -0.33858162 0.23996451
-0.0003224 -0.1208251 -0.7221511 0.24120378 0.06260124 -0.204908 0.62812287 -0.28146037
-0.5385068 -0.06369048 0.14892249 -0.20440756 -0.45236987 -0.005959676 0.13611765 -0.03788315
0.0075440975 -0.8330758 0.0090349 -0.0043114307 -0.17750035 0.050851405 -0.6719597 -0.17558384
-0.34198615 -0.656279 -0.62919223 -0.12702462 -0.034479916 -0.012400642 -0.19641446 -0.15235761
-0.4163442 -0.0045346147 0.08601539 -1.0073533 -0.060059868 0.05027475 -0.03128539 0.074726716
-0.15659395 -0.12067 -0.364927 -0.024231445 -0.16586651 -0.16818835 -0.7394943 -0.10736608
0.048333414 0.0071795317 0.06794689 0.06830701 -0.2362947 -0.20325717 -0.32777083 -0.15236358
0.14124529 -0.011868443 0.5708673 0.23917219 -0.48470977 0.29204807 -0.05776309 -0.07960981
-0.6688604 0.022611085 -0.6128066 0.29346406 0.32756156 0.1472824 -0.22083895 -0.2818222
00000000: 5890 7cbe dd3d b2be 1bc5 753e 4e8c ee3c
00000010: 7bf1 d4be ef35 13bc 74b2 ff3e e476 3bbe
00000020: 37dd 99be fcce 513e 5af2 973c c5d8 79be
00000030: fc88 893d 9121 f1bc 8c80 20be 6800 f33d
00000040: 6084 b8be 6fa5 8c3d e102 d4be 7097 0cbf
00000050: 36e1 163e 4b29 e83e be8d 3bbf b72e 0b3e
00000060: 63a6 023e 2427 ef3d 9877 3c3e e1ce d73e
00000070: e7db 10be 15f7 0dbf 0dcc a33c 2fda 353e
00000080: 3384 cd3d e472 f5bd b6cf 673b f1be 9fbe
00000090: 4481 cf3e aa2c d2bd 4f5a f23d 7238 253e
000000a0: 6234 1fbe d8d2 de3d b5b0 193d 9edd f4bd
000000b0: f239 f03d 0dc4 263f 87d8 0fbe 3213 26bd
000000c0: 9786 26be 66f1 49bc 73ad 91be fb63 76bc
000000d0: 1009 adbd 7383 53bd e400 34bf 91fb 7abe
000000e0: fcc5 b13b 5995 663f 49ba e53d 035a 4abe
000000f0: 55ba 933d 02e7 133e c51d d43d 7d1d e3be
00000100: c4e2 f7bd 9746 3f3e 5f01 37be 15b6 a4bd
00000110: ea02 4c3c 7910 c4be 50e7 0cbe 0b27 b6bc
00000120: de7b 203d c34c 09bd 1f4c 21bd 95ad 7f3d
00000130: 87b3 febb 5598 b4bf f59c 3d3e 99d9 b6bd
00000140: 78cd 4cbe 7dd9 f3be b5b1 b8be 014d 9d3e
00000150: 12e6 36be fcfe 01be 0593 633e d1ee a0be
00000160: bdc3 cebe 4dc1 0f3e 2291 2bbe a41f 4a3e
00000170: 0abc 57be 231d 283e 2303 f5be 48b7 d3be
00000180: 86c1 bcbe 8633 903e a0b1 97be 52f7 b9be
00000190: a795 50be 5801 9cbe ad6c 733e 9077 4abe
000001a0: 117f d5be cdff 65be 5153 3ebb 2d06 04be
000001b0: bb69 743d 8c96 0b3e 4a18 6f3e d95d 07bf
000001c0: 76d1 3bbe 8218 a93d 7bad 87be 5ed0 b73e
000001d0: 9696 d83e 6f79 93be 5204 6fbd 9b67 b7be
000001e0: f1f9 fcba 0537 883e 9056 9ebd ee06 743e
000001f0: 69ea 273e 9c7f f3bd 925a adbe 42b9 753e
00000200: cc07 a9b9 2673 f7bd e5de 38bf 20fe 763e
00000210: 1435 803d 67d3 51be a9cc 203f 931b 90be
00000220: 95db 09bf 2870 82bd 237f 183e 3750 51be
00000230: 069d e7be 6349 c3bb 6d62 0b3e 5d2b 1bbd
00000240: 7a34 f73b 7544 55bf 1e07 143c e746 8dbb
00000250: a7c2 35be 9049 503d 8d05 2cbf 40cc 33be
00000260: cf18 afbe e701 28bf be12 21bf be12 02be
00000270: d03a 0dbd 102c 4bbc df20 49be a203 1cbe
00000280: 112b d5be 1b97 94bb d628 b03d f4f0 80bf
00000290: 5601 76bd e5ec 4d3d 1c25 00bd 520a 993d
000002a0: 2a5a 20be d521 f7bd b6d7 babe 0681 c6bc
000002b0: e9d8 29be 9139 2cbe 804f 3dbf bfe2 dbbd
000002c0: 42f9 453d 4742 eb3b bd27 8b3d 8ce4 8b3d
000002d0: 3df7 71be a622 50be 94d1 a7be 3305 1cbe
000002e0: 9ba2 103e dc73 42bc 5c24 123f 8ee9 743e
000002f0: e12b f8be 5387 953e fd98 6cbd 780a a3bd
00000300: 6f3a 2bbf e23a b93c e5e0 1cbf ec40 963e
00000310: 26b6 a73e 33d1 163e 9b23 62be 004b 90be

hidden2.bias f4 [10]
0.5558311 -0.28092903 -0.6742769 0.45939025 -0.1220998 0.72720295 -0.28603157 0.52007467
0.39058542 0.091133095
00000000: f24a 0e3f eed5 8fbe 699d 2cbf 3335 eb3e
00000010: 760f fabd f929 3a3f bb72 92be 9d23 053f
00000020: d0fa c73e fda3 ba3d

bnhidden2.weight f4 [10]
0.5810755 0.56224203 1.0336546 1.2674673 0.50857115 0.70288277 0.8439239 1.3921962
1.2507668 0.50110847
00000000: 5dc1 143f 18ef 0f3f cb4e 843f 5e3c a23f
00000010: b831 023f 20f0 333f 660b 583f 7c33 b23f
00000020: 2019 a03f a548 003f

bnhidden2.bias f4 [10]
0.55680287 -0.05478221 -0.37433445 -0.437115 -0.55710983 0.58938324 -0.17863774 -0.30225703
-0.7106442 0.60430825
00000000: a28a 0e3f 5063 60bd c4a8 bfbe 8acd dfbe
00000010: c09e 0ebf d2e1 163f d0ec 36be 6fc1 9abe
00000020: c7ec 35bf f2b3 1a3f

bnhidden2.running_mean f4 [10]
0.047625516 -0.26204315 -0.3279186 -0.5165257 -0.7751795 0.39764488 -0.48617366 -0.44843954
-0.5095073 -0.16350934
00000000: f912 433d 852a 86be f2e4 a7be 073b 04bf
00000010: 2a72 46bf 1c98 cb3e c1eb f8be de99 e5be
00000020: 126f 02bf fe6e 27be

bnhidden2.running_var f4 [10]
0.45073524 0.49268723 0.44136003 0.9847685 0.4390023 0.709506 0.38609305 0.9801219
0.65436184 0.46510586
00000000: c5c6 e63e 8041 fc3e f1f9 e13e ca19 7c3f
00000010: e9c4 e03e 2fa2 353f fdad c53e 45e9 7a3f
00000020: 4284 273f 5b22 ee3e

output.weight f4 [5, 10]
-0.69394463 0.3616181 0.29080188 0.259835 0.028002517 -1.0850255 0.8955432 -0.95482385
0.2884192 -0.50012034 -0.33218348 0.071493655 0.38151127 0.194516 -0.19324508 -0.0045865476
0.35958332 -0.60134226 -0.26799288 -0.33813623 0.154253 -0.3755666 0.18988548 0.041021615
0.3064844 0.32170725 0.009685669 -0.3433181 -0.41962448 -0.17497155 0.65558237 -0.81864655
-0.1576618 -0.3549566 -0.102340505 0.27572125 -0.18012436 0.0019927835 -0.16244411 0.064869754
0.36056778 0.024005743 -0.7813729 -1.2073961 -0.31374654 0.29881877 -0.19446373 0.59952974
1.1363776 0.7695048
00000000: 5ba6 31bf 0226 b93e fce3 943e 1809 853e
00000010: 8965 e53c 1ee2 8abf 5242 653f 566f 74bf
00000020: aeab 933e e307 00bf f413 aabe 446b 923d
00000030: 7255 c33e 342f 473e 0ae2 45be c04a 96bb
00000040: 4e1b b83e 91f1 19bf 5d36 89be 3120 adbe
00000050: 80f4 1d3e 444a c0be 5771 423e 4806 283d
00000060: 86eb 9c3e d0b6 a43e a4b0 1e3c 64c7 afbe
00000070: 05d9 d6be be2b 33be 3fd4 273f d292 51bf
00000080: 1872 21be dfbc b5be e697 d1bd 562b 8d3e
00000090: 8572 38be 5c99 023b c057 26be 6fda 843d
000000a0: 579c b83e b1a7 c43c 0e08 48bf f58b 9abf
000000b0: 63a3 a0be c6fe 983e 8021 47be c87a 193f
000000c0: d274 913f 44fe 443f

output.bias f4 [5]
-0.17614435 -0.030480865 0.21399279 0.08006441 -0.18804604
00000000: 2f5f 34be 02b3 f9bc ed20 5b3e cff8 a33d
00000010: 248f 40be
